{"weightsManifest": [{"paths": ["group1-shard1of1"], "weights": [{"shape": [32], "dtype": "float32", "name": "batch_normalization_1/gamma"}, {"shape": [32], "dtype": "float32", "name": "batch_normalization_1/beta"}, {"shape": [32], "dtype": "float32", "name": "batch_normalization_1/moving_mean"}, {"shape": [32], "dtype": "float32", "name": "batch_normalization_1/moving_variance"}]}, {"paths": ["group2-shard1of1"], "weights": [{"shape": [32], "dtype": "float32", "name": "batch_normalization_10/gamma"}, {"shape": [32], "dtype": "float32", "name": "batch_normalization_10/beta"}, {"shape": [32], "dtype": "float32", "name": "batch_normalization_10/moving_mean"}, {"shape": [32], "dtype": "float32", "name": "batch_normalization_10/moving_variance"}]}, {"paths": ["group3-shard1of1"], "weights": [{"shape": [32], "dtype": "float32", "name": "batch_normalization_11/gamma"}, {"shape": [32], "dtype": "float32", "name": "batch_normalization_11/beta"}, {"shape": [32], "dtype": "float32", "name": "batch_normalization_11/moving_mean"}, {"shape": [32], "dtype": "float32", "name": "batch_normalization_11/moving_variance"}]}, {"paths": ["group4-shard1of1"], "weights": [{"shape": [32], "dtype": "float32", "name": "batch_normalization_12/gamma"}, {"shape": [32], "dtype": "float32", "name": "batch_normalization_12/beta"}, {"shape": [32], "dtype": "float32", "name": "batch_normalization_12/moving_mean"}, {"shape": [32], "dtype": "float32", "name": "batch_normalization_12/moving_variance"}]}, {"paths": ["group5-shard1of1"], "weights": [{"shape": [32], "dtype": "float32", "name": "batch_normalization_13/gamma"}, {"shape": [32], "dtype": "float32", "name": "batch_normalization_13/beta"}, {"shape": [32], "dtype": "float32", "name": "batch_normalization_13/moving_mean"}, {"shape": [32], "dtype": "float32", "name": "batch_normalization_13/moving_variance"}]}, {"paths": ["group6-shard1of1"], "weights": [{"shape": [32], "dtype": "float32", "name": "batch_normalization_14/gamma"}, {"shape": [32], "dtype": "float32", "name": "batch_normalization_14/beta"}, {"shape": [32], "dtype": "float32", "name": "batch_normalization_14/moving_mean"}, {"shape": [32], "dtype": "float32", "name": "batch_normalization_14/moving_variance"}]}, {"paths": ["group7-shard1of1"], "weights": [{"shape": [32], "dtype": "float32", "name": "batch_normalization_15/gamma"}, {"shape": [32], "dtype": "float32", "name": "batch_normalization_15/beta"}, {"shape": [32], "dtype": "float32", "name": "batch_normalization_15/moving_mean"}, {"shape": [32], "dtype": "float32", "name": "batch_normalization_15/moving_variance"}]}, {"paths": ["group8-shard1of1"], "weights": [{"shape": [32], "dtype": "float32", "name": "batch_normalization_16/gamma"}, {"shape": [32], "dtype": "float32", "name": "batch_normalization_16/beta"}, {"shape": [32], "dtype": "float32", "name": "batch_normalization_16/moving_mean"}, {"shape": [32], "dtype": "float32", "name": "batch_normalization_16/moving_variance"}]}, {"paths": ["group9-shard1of1"], "weights": [{"shape": [32], "dtype": "float32", "name": "batch_normalization_17/gamma"}, {"shape": [32], "dtype": "float32", "name": "batch_normalization_17/beta"}, {"shape": [32], "dtype": "float32", "name": "batch_normalization_17/moving_mean"}, {"shape": [32], "dtype": "float32", "name": "batch_normalization_17/moving_variance"}]}, {"paths": ["group10-shard1of1"], "weights": [{"shape": [32], "dtype": "float32", "name": "batch_normalization_18/gamma"}, {"shape": [32], "dtype": "float32", "name": "batch_normalization_18/beta"}, {"shape": [32], "dtype": "float32", "name": "batch_normalization_18/moving_mean"}, {"shape": [32], "dtype": "float32", "name": "batch_normalization_18/moving_variance"}]}, {"paths": ["group11-shard1of1"], "weights": [{"shape": [32], "dtype": "float32", "name": "batch_normalization_19/gamma"}, {"shape": [32], "dtype": "float32", "name": "batch_normalization_19/beta"}, {"shape": [32], "dtype": "float32", "name": "batch_normalization_19/moving_mean"}, {"shape": [32], "dtype": "float32", "name": "batch_normalization_19/moving_variance"}]}, {"paths": ["group12-shard1of1"], "weights": [{"shape": [32], "dtype": "float32", "name": "batch_normalization_2/gamma"}, {"shape": [32], "dtype": "float32", "name": "batch_normalization_2/beta"}, {"shape": [32], "dtype": "float32", "name": "batch_normalization_2/moving_mean"}, {"shape": [32], "dtype": "float32", "name": "batch_normalization_2/moving_variance"}]}, {"paths": ["group13-shard1of1"], "weights": [{"shape": [32], "dtype": "float32", "name": "batch_normalization_20/gamma"}, {"shape": [32], "dtype": "float32", "name": "batch_normalization_20/beta"}, {"shape": [32], "dtype": "float32", "name": "batch_normalization_20/moving_mean"}, {"shape": [32], "dtype": "float32", "name": "batch_normalization_20/moving_variance"}]}, {"paths": ["group14-shard1of1"], "weights": [{"shape": [32], "dtype": "float32", "name": "batch_normalization_21/gamma"}, {"shape": [32], "dtype": "float32", "name": "batch_normalization_21/beta"}, {"shape": [32], "dtype": "float32", "name": "batch_normalization_21/moving_mean"}, {"shape": [32], "dtype": "float32", "name": "batch_normalization_21/moving_variance"}]}, {"paths": ["group15-shard1of1"], "weights": [{"shape": [4], "dtype": "float32", "name": "batch_normalization_22/gamma"}, {"shape": [4], "dtype": "float32", "name": "batch_normalization_22/beta"}, {"shape": [4], "dtype": "float32", "name": "batch_normalization_22/moving_mean"}, {"shape": [4], "dtype": "float32", "name": "batch_normalization_22/moving_variance"}]}, {"paths": ["group16-shard1of1"], "weights": [{"shape": [4], "dtype": "float32", "name": "batch_normalization_23/gamma"}, {"shape": [4], "dtype": "float32", "name": "batch_normalization_23/beta"}, {"shape": [4], "dtype": "float32", "name": "batch_normalization_23/moving_mean"}, {"shape": [4], "dtype": "float32", "name": "batch_normalization_23/moving_variance"}]}, {"paths": ["group17-shard1of1"], "weights": [{"shape": [128], "dtype": "float32", "name": "batch_normalization_24/gamma"}, {"shape": [128], "dtype": "float32", "name": "batch_normalization_24/beta"}, {"shape": [128], "dtype": "float32", "name": "batch_normalization_24/moving_mean"}, {"shape": [128], "dtype": "float32", "name": "batch_normalization_24/moving_variance"}]}, {"paths": ["group18-shard1of1"], "weights": [{"shape": [32], "dtype": "float32", "name": "batch_normalization_3/gamma"}, {"shape": [32], "dtype": "float32", "name": "batch_normalization_3/beta"}, {"shape": [32], "dtype": "float32", "name": "batch_normalization_3/moving_mean"}, {"shape": [32], "dtype": "float32", "name": "batch_normalization_3/moving_variance"}]}, {"paths": ["group19-shard1of1"], "weights": [{"shape": [32], "dtype": "float32", "name": "batch_normalization_4/gamma"}, {"shape": [32], "dtype": "float32", "name": "batch_normalization_4/beta"}, {"shape": [32], "dtype": "float32", "name": "batch_normalization_4/moving_mean"}, {"shape": [32], "dtype": "float32", "name": "batch_normalization_4/moving_variance"}]}, {"paths": ["group20-shard1of1"], "weights": [{"shape": [32], "dtype": "float32", "name": "batch_normalization_5/gamma"}, {"shape": [32], "dtype": "float32", "name": "batch_normalization_5/beta"}, {"shape": [32], "dtype": "float32", "name": "batch_normalization_5/moving_mean"}, {"shape": [32], "dtype": "float32", "name": "batch_normalization_5/moving_variance"}]}, {"paths": ["group21-shard1of1"], "weights": [{"shape": [32], "dtype": "float32", "name": "batch_normalization_6/gamma"}, {"shape": [32], "dtype": "float32", "name": "batch_normalization_6/beta"}, {"shape": [32], "dtype": "float32", "name": "batch_normalization_6/moving_mean"}, {"shape": [32], "dtype": "float32", "name": "batch_normalization_6/moving_variance"}]}, {"paths": ["group22-shard1of1"], "weights": [{"shape": [32], "dtype": "float32", "name": "batch_normalization_7/gamma"}, {"shape": [32], "dtype": "float32", "name": "batch_normalization_7/beta"}, {"shape": [32], "dtype": "float32", "name": "batch_normalization_7/moving_mean"}, {"shape": [32], "dtype": "float32", "name": "batch_normalization_7/moving_variance"}]}, {"paths": ["group23-shard1of1"], "weights": [{"shape": [32], "dtype": "float32", "name": "batch_normalization_8/gamma"}, {"shape": [32], "dtype": "float32", "name": "batch_normalization_8/beta"}, {"shape": [32], "dtype": "float32", "name": "batch_normalization_8/moving_mean"}, {"shape": [32], "dtype": "float32", "name": "batch_normalization_8/moving_variance"}]}, {"paths": ["group24-shard1of1"], "weights": [{"shape": [32], "dtype": "float32", "name": "batch_normalization_9/gamma"}, {"shape": [32], "dtype": "float32", "name": "batch_normalization_9/beta"}, {"shape": [32], "dtype": "float32", "name": "batch_normalization_9/moving_mean"}, {"shape": [32], "dtype": "float32", "name": "batch_normalization_9/moving_variance"}]}, {"paths": ["group25-shard1of1"], "weights": [{"shape": [3, 3, 2, 32], "dtype": "float32", "name": "conv2d_1/kernel"}, {"shape": [32], "dtype": "float32", "name": "conv2d_1/bias"}]}, {"paths": ["group26-shard1of1"], "weights": [{"shape": [3, 3, 32, 32], "dtype": "float32", "name": "conv2d_10/kernel"}, {"shape": [32], "dtype": "float32", "name": "conv2d_10/bias"}]}, {"paths": ["group27-shard1of1"], "weights": [{"shape": [3, 3, 32, 32], "dtype": "float32", "name": "conv2d_11/kernel"}, {"shape": [32], "dtype": "float32", "name": "conv2d_11/bias"}]}, {"paths": ["group28-shard1of1"], "weights": [{"shape": [3, 3, 32, 32], "dtype": "float32", "name": "conv2d_12/kernel"}, {"shape": [32], "dtype": "float32", "name": "conv2d_12/bias"}]}, {"paths": ["group29-shard1of1"], "weights": [{"shape": [3, 3, 32, 32], "dtype": "float32", "name": "conv2d_13/kernel"}, {"shape": [32], "dtype": "float32", "name": "conv2d_13/bias"}]}, {"paths": ["group30-shard1of1"], "weights": [{"shape": [3, 3, 32, 32], "dtype": "float32", "name": "conv2d_14/kernel"}, {"shape": [32], "dtype": "float32", "name": "conv2d_14/bias"}]}, {"paths": ["group31-shard1of1"], "weights": [{"shape": [3, 3, 32, 32], "dtype": "float32", "name": "conv2d_15/kernel"}, {"shape": [32], "dtype": "float32", "name": "conv2d_15/bias"}]}, {"paths": ["group32-shard1of1"], "weights": [{"shape": [3, 3, 32, 32], "dtype": "float32", "name": "conv2d_16/kernel"}, {"shape": [32], "dtype": "float32", "name": "conv2d_16/bias"}]}, {"paths": ["group33-shard1of1"], "weights": [{"shape": [3, 3, 32, 32], "dtype": "float32", "name": "conv2d_17/kernel"}, {"shape": [32], "dtype": "float32", "name": "conv2d_17/bias"}]}, {"paths": ["group34-shard1of1"], "weights": [{"shape": [3, 3, 32, 32], "dtype": "float32", "name": "conv2d_18/kernel"}, {"shape": [32], "dtype": "float32", "name": "conv2d_18/bias"}]}, {"paths": ["group35-shard1of1"], "weights": [{"shape": [3, 3, 32, 32], "dtype": "float32", "name": "conv2d_19/kernel"}, {"shape": [32], "dtype": "float32", "name": "conv2d_19/bias"}]}, {"paths": ["group36-shard1of1"], "weights": [{"shape": [3, 3, 32, 32], "dtype": "float32", "name": "conv2d_2/kernel"}, {"shape": [32], "dtype": "float32", "name": "conv2d_2/bias"}]}, {"paths": ["group37-shard1of1"], "weights": [{"shape": [3, 3, 32, 32], "dtype": "float32", "name": "conv2d_20/kernel"}, {"shape": [32], "dtype": "float32", "name": "conv2d_20/bias"}]}, {"paths": ["group38-shard1of1"], "weights": [{"shape": [3, 3, 32, 32], "dtype": "float32", "name": "conv2d_21/kernel"}, {"shape": [32], "dtype": "float32", "name": "conv2d_21/bias"}]}, {"paths": ["group39-shard1of1"], "weights": [{"shape": [1, 1, 32, 4], "dtype": "float32", "name": "conv2d_22/kernel"}, {"shape": [4], "dtype": "float32", "name": "conv2d_22/bias"}]}, {"paths": ["group40-shard1of1"], "weights": [{"shape": [1, 1, 32, 4], "dtype": "float32", "name": "conv2d_23/kernel"}, {"shape": [4], "dtype": "float32", "name": "conv2d_23/bias"}]}, {"paths": ["group41-shard1of1"], "weights": [{"shape": [3, 3, 32, 32], "dtype": "float32", "name": "conv2d_3/kernel"}, {"shape": [32], "dtype": "float32", "name": "conv2d_3/bias"}]}, {"paths": ["group42-shard1of1"], "weights": [{"shape": [3, 3, 32, 32], "dtype": "float32", "name": "conv2d_4/kernel"}, {"shape": [32], "dtype": "float32", "name": "conv2d_4/bias"}]}, {"paths": ["group43-shard1of1"], "weights": [{"shape": [3, 3, 32, 32], "dtype": "float32", "name": "conv2d_5/kernel"}, {"shape": [32], "dtype": "float32", "name": "conv2d_5/bias"}]}, {"paths": ["group44-shard1of1"], "weights": [{"shape": [3, 3, 32, 32], "dtype": "float32", "name": "conv2d_6/kernel"}, {"shape": [32], "dtype": "float32", "name": "conv2d_6/bias"}]}, {"paths": ["group45-shard1of1"], "weights": [{"shape": [3, 3, 32, 32], "dtype": "float32", "name": "conv2d_7/kernel"}, {"shape": [32], "dtype": "float32", "name": "conv2d_7/bias"}]}, {"paths": ["group46-shard1of1"], "weights": [{"shape": [3, 3, 32, 32], "dtype": "float32", "name": "conv2d_8/kernel"}, {"shape": [32], "dtype": "float32", "name": "conv2d_8/bias"}]}, {"paths": ["group47-shard1of1"], "weights": [{"shape": [3, 3, 32, 32], "dtype": "float32", "name": "conv2d_9/kernel"}, {"shape": [32], "dtype": "float32", "name": "conv2d_9/bias"}]}, {"paths": ["group48-shard1of1"], "weights": [{"shape": [168, 128], "dtype": "float32", "name": "dense_1/kernel"}, {"shape": [128], "dtype": "float32", "name": "dense_1/bias"}]}, {"paths": ["group49-shard1of1"], "weights": [{"shape": [168, 7], "dtype": "float32", "name": "policy_out/kernel"}, {"shape": [7], "dtype": "float32", "name": "policy_out/bias"}]}, {"paths": ["group50-shard1of1"], "weights": [{"shape": [128, 1], "dtype": "float32", "name": "value_out/kernel"}, {"shape": [1], "dtype": "float32", "name": "value_out/bias"}]}], "modelTopology": {"keras_version": "2.0.8-tf", "training_config": {"optimizer_config": {"class_name": "SGD", "config": {"nesterov": false, "momentum": 0.8999999761581421, "lr": 0.009999999776482582, "decay": 0.0}}, "loss_weights": null, "sample_weight_mode": null, "metrics": null, "loss": ["categorical_crossentropy", "mean_squared_error"]}, "backend": "tensorflow", "model_config": {"class_name": "Model", "config": {"input_layers": [["input_1", 0, 0]], "output_layers": [["policy_out", 0, 0], ["value_out", 0, 0]], "layers": [{"class_name": "InputLayer", "config": {"sparse": false, "batch_input_shape": [null, 2, 6, 7], "dtype": "float32", "name": "input_1"}, "inbound_nodes": [], "name": "input_1"}, {"class_name": "Conv2D", "config": {"bias_initializer": {"class_name": "Zeros", "config": {"dtype": "float32"}}, "kernel_regularizer": {"class_name": "L1L2", "config": {"l2": 9.999999747378752e-05, "l1": 0.0}}, "kernel_initializer": {"class_name": "VarianceScaling", "config": {"mode": "fan_avg", "scale": 1.0, "seed": null, "dtype": "float32", "distribution": "uniform"}}, "kernel_size": [3, 3], "data_format": "channels_first", "trainable": true, "dilation_rate": [1, 1], "activation": "linear", "bias_constraint": null, "dtype": "float32", "filters": 32, "padding": "same", "activity_regularizer": null, "use_bias": true, "strides": [1, 1], "bias_regularizer": null, "kernel_constraint": null, "name": "conv2d_1"}, "inbound_nodes": [[["input_1", 0, 0, {}]]], "name": "conv2d_1"}, {"class_name": "BatchNormalization", "config": {"beta_initializer": {"class_name": "Zeros", "config": {"dtype": "float32"}}, "axis": 1, "center": true, "name": "batch_normalization_1", "gamma_constraint": null, "trainable": true, "epsilon": 0.001, "dtype": "float32", "moving_variance_initializer": {"class_name": "Ones", "config": {"dtype": "float32"}}, "beta_regularizer": null, "moving_mean_initializer": {"class_name": "Zeros", "config": {"dtype": "float32"}}, "beta_constraint": null, "gamma_regularizer": null, "scale": true, "momentum": 0.99, "gamma_initializer": {"class_name": "Ones", "config": {"dtype": "float32"}}}, "inbound_nodes": [[["conv2d_1", 0, 0, {}]]], "name": "batch_normalization_1"}, {"class_name": "Activation", "config": {"trainable": true, "activation": "relu", "dtype": "float32", "name": "activation_1"}, "inbound_nodes": [[["batch_normalization_1", 0, 0, {}]]], "name": "activation_1"}, {"class_name": "Conv2D", "config": {"bias_initializer": {"class_name": "Zeros", "config": {"dtype": "float32"}}, "kernel_regularizer": {"class_name": "L1L2", "config": {"l2": 9.999999747378752e-05, "l1": 0.0}}, "kernel_initializer": {"class_name": "VarianceScaling", "config": {"mode": "fan_avg", "scale": 1.0, "seed": null, "dtype": "float32", "distribution": "uniform"}}, "kernel_size": [3, 3], "data_format": "channels_first", "trainable": true, "dilation_rate": [1, 1], "activation": "linear", "bias_constraint": null, "dtype": "float32", "filters": 32, "padding": "same", "activity_regularizer": null, "use_bias": true, "strides": [1, 1], "bias_regularizer": null, "kernel_constraint": null, "name": "conv2d_2"}, "inbound_nodes": [[["activation_1", 0, 0, {}]]], "name": "conv2d_2"}, {"class_name": "BatchNormalization", "config": {"beta_initializer": {"class_name": "Zeros", "config": {"dtype": "float32"}}, "axis": 1, "center": true, "name": "batch_normalization_2", "gamma_constraint": null, "trainable": true, "epsilon": 0.001, "dtype": "float32", "moving_variance_initializer": {"class_name": "Ones", "config": {"dtype": "float32"}}, "beta_regularizer": null, "moving_mean_initializer": {"class_name": "Zeros", "config": {"dtype": "float32"}}, "beta_constraint": null, "gamma_regularizer": null, "scale": true, "momentum": 0.99, "gamma_initializer": {"class_name": "Ones", "config": {"dtype": "float32"}}}, "inbound_nodes": [[["conv2d_2", 0, 0, {}]]], "name": "batch_normalization_2"}, {"class_name": "Activation", "config": {"trainable": true, "activation": "relu", "dtype": "float32", "name": "activation_2"}, "inbound_nodes": [[["batch_normalization_2", 0, 0, {}]]], "name": "activation_2"}, {"class_name": "Conv2D", "config": {"bias_initializer": {"class_name": "Zeros", "config": {"dtype": "float32"}}, "kernel_regularizer": {"class_name": "L1L2", "config": {"l2": 9.999999747378752e-05, "l1": 0.0}}, "kernel_initializer": {"class_name": "VarianceScaling", "config": {"mode": "fan_avg", "scale": 1.0, "seed": null, "dtype": "float32", "distribution": "uniform"}}, "kernel_size": [3, 3], "data_format": "channels_first", "trainable": true, "dilation_rate": [1, 1], "activation": "linear", "bias_constraint": null, "dtype": "float32", "filters": 32, "padding": "same", "activity_regularizer": null, "use_bias": true, "strides": [1, 1], "bias_regularizer": null, "kernel_constraint": null, "name": "conv2d_3"}, "inbound_nodes": [[["activation_2", 0, 0, {}]]], "name": "conv2d_3"}, {"class_name": "BatchNormalization", "config": {"beta_initializer": {"class_name": "Zeros", "config": {"dtype": "float32"}}, "axis": 1, "center": true, "name": "batch_normalization_3", "gamma_constraint": null, "trainable": true, "epsilon": 0.001, "dtype": "float32", "moving_variance_initializer": {"class_name": "Ones", "config": {"dtype": "float32"}}, "beta_regularizer": null, "moving_mean_initializer": {"class_name": "Zeros", "config": {"dtype": "float32"}}, "beta_constraint": null, "gamma_regularizer": null, "scale": true, "momentum": 0.99, "gamma_initializer": {"class_name": "Ones", "config": {"dtype": "float32"}}}, "inbound_nodes": [[["conv2d_3", 0, 0, {}]]], "name": "batch_normalization_3"}, {"class_name": "Add", "config": {"trainable": true, "dtype": "float32", "name": "add_1"}, "inbound_nodes": [[["activation_1", 0, 0, {}], ["batch_normalization_3", 0, 0, {}]]], "name": "add_1"}, {"class_name": "Activation", "config": {"trainable": true, "activation": "relu", "dtype": "float32", "name": "activation_3"}, "inbound_nodes": [[["add_1", 0, 0, {}]]], "name": "activation_3"}, {"class_name": "Conv2D", "config": {"bias_initializer": {"class_name": "Zeros", "config": {"dtype": "float32"}}, "kernel_regularizer": {"class_name": "L1L2", "config": {"l2": 9.999999747378752e-05, "l1": 0.0}}, "kernel_initializer": {"class_name": "VarianceScaling", "config": {"mode": "fan_avg", "scale": 1.0, "seed": null, "dtype": "float32", "distribution": "uniform"}}, "kernel_size": [3, 3], "data_format": "channels_first", "trainable": true, "dilation_rate": [1, 1], "activation": "linear", "bias_constraint": null, "dtype": "float32", "filters": 32, "padding": "same", "activity_regularizer": null, "use_bias": true, "strides": [1, 1], "bias_regularizer": null, "kernel_constraint": null, "name": "conv2d_4"}, "inbound_nodes": [[["activation_3", 0, 0, {}]]], "name": "conv2d_4"}, {"class_name": "BatchNormalization", "config": {"beta_initializer": {"class_name": "Zeros", "config": {"dtype": "float32"}}, "axis": 1, "center": true, "name": "batch_normalization_4", "gamma_constraint": null, "trainable": true, "epsilon": 0.001, "dtype": "float32", "moving_variance_initializer": {"class_name": "Ones", "config": {"dtype": "float32"}}, "beta_regularizer": null, "moving_mean_initializer": {"class_name": "Zeros", "config": {"dtype": "float32"}}, "beta_constraint": null, "gamma_regularizer": null, "scale": true, "momentum": 0.99, "gamma_initializer": {"class_name": "Ones", "config": {"dtype": "float32"}}}, "inbound_nodes": [[["conv2d_4", 0, 0, {}]]], "name": "batch_normalization_4"}, {"class_name": "Activation", "config": {"trainable": true, "activation": "relu", "dtype": "float32", "name": "activation_4"}, "inbound_nodes": [[["batch_normalization_4", 0, 0, {}]]], "name": "activation_4"}, {"class_name": "Conv2D", "config": {"bias_initializer": {"class_name": "Zeros", "config": {"dtype": "float32"}}, "kernel_regularizer": {"class_name": "L1L2", "config": {"l2": 9.999999747378752e-05, "l1": 0.0}}, "kernel_initializer": {"class_name": "VarianceScaling", "config": {"mode": "fan_avg", "scale": 1.0, "seed": null, "dtype": "float32", "distribution": "uniform"}}, "kernel_size": [3, 3], "data_format": "channels_first", "trainable": true, "dilation_rate": [1, 1], "activation": "linear", "bias_constraint": null, "dtype": "float32", "filters": 32, "padding": "same", "activity_regularizer": null, "use_bias": true, "strides": [1, 1], "bias_regularizer": null, "kernel_constraint": null, "name": "conv2d_5"}, "inbound_nodes": [[["activation_4", 0, 0, {}]]], "name": "conv2d_5"}, {"class_name": "BatchNormalization", "config": {"beta_initializer": {"class_name": "Zeros", "config": {"dtype": "float32"}}, "axis": 1, "center": true, "name": "batch_normalization_5", "gamma_constraint": null, "trainable": true, "epsilon": 0.001, "dtype": "float32", "moving_variance_initializer": {"class_name": "Ones", "config": {"dtype": "float32"}}, "beta_regularizer": null, "moving_mean_initializer": {"class_name": "Zeros", "config": {"dtype": "float32"}}, "beta_constraint": null, "gamma_regularizer": null, "scale": true, "momentum": 0.99, "gamma_initializer": {"class_name": "Ones", "config": {"dtype": "float32"}}}, "inbound_nodes": [[["conv2d_5", 0, 0, {}]]], "name": "batch_normalization_5"}, {"class_name": "Add", "config": {"trainable": true, "dtype": "float32", "name": "add_2"}, "inbound_nodes": [[["activation_3", 0, 0, {}], ["batch_normalization_5", 0, 0, {}]]], "name": "add_2"}, {"class_name": "Activation", "config": {"trainable": true, "activation": "relu", "dtype": "float32", "name": "activation_5"}, "inbound_nodes": [[["add_2", 0, 0, {}]]], "name": "activation_5"}, {"class_name": "Conv2D", "config": {"bias_initializer": {"class_name": "Zeros", "config": {"dtype": "float32"}}, "kernel_regularizer": {"class_name": "L1L2", "config": {"l2": 9.999999747378752e-05, "l1": 0.0}}, "kernel_initializer": {"class_name": "VarianceScaling", "config": {"mode": "fan_avg", "scale": 1.0, "seed": null, "dtype": "float32", "distribution": "uniform"}}, "kernel_size": [3, 3], "data_format": "channels_first", "trainable": true, "dilation_rate": [1, 1], "activation": "linear", "bias_constraint": null, "dtype": "float32", "filters": 32, "padding": "same", "activity_regularizer": null, "use_bias": true, "strides": [1, 1], "bias_regularizer": null, "kernel_constraint": null, "name": "conv2d_6"}, "inbound_nodes": [[["activation_5", 0, 0, {}]]], "name": "conv2d_6"}, {"class_name": "BatchNormalization", "config": {"beta_initializer": {"class_name": "Zeros", "config": {"dtype": "float32"}}, "axis": 1, "center": true, "name": "batch_normalization_6", "gamma_constraint": null, "trainable": true, "epsilon": 0.001, "dtype": "float32", "moving_variance_initializer": {"class_name": "Ones", "config": {"dtype": "float32"}}, "beta_regularizer": null, "moving_mean_initializer": {"class_name": "Zeros", "config": {"dtype": "float32"}}, "beta_constraint": null, "gamma_regularizer": null, "scale": true, "momentum": 0.99, "gamma_initializer": {"class_name": "Ones", "config": {"dtype": "float32"}}}, "inbound_nodes": [[["conv2d_6", 0, 0, {}]]], "name": "batch_normalization_6"}, {"class_name": "Activation", "config": {"trainable": true, "activation": "relu", "dtype": "float32", "name": "activation_6"}, "inbound_nodes": [[["batch_normalization_6", 0, 0, {}]]], "name": "activation_6"}, {"class_name": "Conv2D", "config": {"bias_initializer": {"class_name": "Zeros", "config": {"dtype": "float32"}}, "kernel_regularizer": {"class_name": "L1L2", "config": {"l2": 9.999999747378752e-05, "l1": 0.0}}, "kernel_initializer": {"class_name": "VarianceScaling", "config": {"mode": "fan_avg", "scale": 1.0, "seed": null, "dtype": "float32", "distribution": "uniform"}}, "kernel_size": [3, 3], "data_format": "channels_first", "trainable": true, "dilation_rate": [1, 1], "activation": "linear", "bias_constraint": null, "dtype": "float32", "filters": 32, "padding": "same", "activity_regularizer": null, "use_bias": true, "strides": [1, 1], "bias_regularizer": null, "kernel_constraint": null, "name": "conv2d_7"}, "inbound_nodes": [[["activation_6", 0, 0, {}]]], "name": "conv2d_7"}, {"class_name": "BatchNormalization", "config": {"beta_initializer": {"class_name": "Zeros", "config": {"dtype": "float32"}}, "axis": 1, "center": true, "name": "batch_normalization_7", "gamma_constraint": null, "trainable": true, "epsilon": 0.001, "dtype": "float32", "moving_variance_initializer": {"class_name": "Ones", "config": {"dtype": "float32"}}, "beta_regularizer": null, "moving_mean_initializer": {"class_name": "Zeros", "config": {"dtype": "float32"}}, "beta_constraint": null, "gamma_regularizer": null, "scale": true, "momentum": 0.99, "gamma_initializer": {"class_name": "Ones", "config": {"dtype": "float32"}}}, "inbound_nodes": [[["conv2d_7", 0, 0, {}]]], "name": "batch_normalization_7"}, {"class_name": "Add", "config": {"trainable": true, "dtype": "float32", "name": "add_3"}, "inbound_nodes": [[["activation_5", 0, 0, {}], ["batch_normalization_7", 0, 0, {}]]], "name": "add_3"}, {"class_name": "Activation", "config": {"trainable": true, "activation": "relu", "dtype": "float32", "name": "activation_7"}, "inbound_nodes": [[["add_3", 0, 0, {}]]], "name": "activation_7"}, {"class_name": "Conv2D", "config": {"bias_initializer": {"class_name": "Zeros", "config": {"dtype": "float32"}}, "kernel_regularizer": {"class_name": "L1L2", "config": {"l2": 9.999999747378752e-05, "l1": 0.0}}, "kernel_initializer": {"class_name": "VarianceScaling", "config": {"mode": "fan_avg", "scale": 1.0, "seed": null, "dtype": "float32", "distribution": "uniform"}}, "kernel_size": [3, 3], "data_format": "channels_first", "trainable": true, "dilation_rate": [1, 1], "activation": "linear", "bias_constraint": null, "dtype": "float32", "filters": 32, "padding": "same", "activity_regularizer": null, "use_bias": true, "strides": [1, 1], "bias_regularizer": null, "kernel_constraint": null, "name": "conv2d_8"}, "inbound_nodes": [[["activation_7", 0, 0, {}]]], "name": "conv2d_8"}, {"class_name": "BatchNormalization", "config": {"beta_initializer": {"class_name": "Zeros", "config": {"dtype": "float32"}}, "axis": 1, "center": true, "name": "batch_normalization_8", "gamma_constraint": null, "trainable": true, "epsilon": 0.001, "dtype": "float32", "moving_variance_initializer": {"class_name": "Ones", "config": {"dtype": "float32"}}, "beta_regularizer": null, "moving_mean_initializer": {"class_name": "Zeros", "config": {"dtype": "float32"}}, "beta_constraint": null, "gamma_regularizer": null, "scale": true, "momentum": 0.99, "gamma_initializer": {"class_name": "Ones", "config": {"dtype": "float32"}}}, "inbound_nodes": [[["conv2d_8", 0, 0, {}]]], "name": "batch_normalization_8"}, {"class_name": "Activation", "config": {"trainable": true, "activation": "relu", "dtype": "float32", "name": "activation_8"}, "inbound_nodes": [[["batch_normalization_8", 0, 0, {}]]], "name": "activation_8"}, {"class_name": "Conv2D", "config": {"bias_initializer": {"class_name": "Zeros", "config": {"dtype": "float32"}}, "kernel_regularizer": {"class_name": "L1L2", "config": {"l2": 9.999999747378752e-05, "l1": 0.0}}, "kernel_initializer": {"class_name": "VarianceScaling", "config": {"mode": "fan_avg", "scale": 1.0, "seed": null, "dtype": "float32", "distribution": "uniform"}}, "kernel_size": [3, 3], "data_format": "channels_first", "trainable": true, "dilation_rate": [1, 1], "activation": "linear", "bias_constraint": null, "dtype": "float32", "filters": 32, "padding": "same", "activity_regularizer": null, "use_bias": true, "strides": [1, 1], "bias_regularizer": null, "kernel_constraint": null, "name": "conv2d_9"}, "inbound_nodes": [[["activation_8", 0, 0, {}]]], "name": "conv2d_9"}, {"class_name": "BatchNormalization", "config": {"beta_initializer": {"class_name": "Zeros", "config": {"dtype": "float32"}}, "axis": 1, "center": true, "name": "batch_normalization_9", "gamma_constraint": null, "trainable": true, "epsilon": 0.001, "dtype": "float32", "moving_variance_initializer": {"class_name": "Ones", "config": {"dtype": "float32"}}, "beta_regularizer": null, "moving_mean_initializer": {"class_name": "Zeros", "config": {"dtype": "float32"}}, "beta_constraint": null, "gamma_regularizer": null, "scale": true, "momentum": 0.99, "gamma_initializer": {"class_name": "Ones", "config": {"dtype": "float32"}}}, "inbound_nodes": [[["conv2d_9", 0, 0, {}]]], "name": "batch_normalization_9"}, {"class_name": "Add", "config": {"trainable": true, "dtype": "float32", "name": "add_4"}, "inbound_nodes": [[["activation_7", 0, 0, {}], ["batch_normalization_9", 0, 0, {}]]], "name": "add_4"}, {"class_name": "Activation", "config": {"trainable": true, "activation": "relu", "dtype": "float32", "name": "activation_9"}, "inbound_nodes": [[["add_4", 0, 0, {}]]], "name": "activation_9"}, {"class_name": "Conv2D", "config": {"bias_initializer": {"class_name": "Zeros", "config": {"dtype": "float32"}}, "kernel_regularizer": {"class_name": "L1L2", "config": {"l2": 9.999999747378752e-05, "l1": 0.0}}, "kernel_initializer": {"class_name": "VarianceScaling", "config": {"mode": "fan_avg", "scale": 1.0, "seed": null, "dtype": "float32", "distribution": "uniform"}}, "kernel_size": [3, 3], "data_format": "channels_first", "trainable": true, "dilation_rate": [1, 1], "activation": "linear", "bias_constraint": null, "dtype": "float32", "filters": 32, "padding": "same", "activity_regularizer": null, "use_bias": true, "strides": [1, 1], "bias_regularizer": null, "kernel_constraint": null, "name": "conv2d_10"}, "inbound_nodes": [[["activation_9", 0, 0, {}]]], "name": "conv2d_10"}, {"class_name": "BatchNormalization", "config": {"beta_initializer": {"class_name": "Zeros", "config": {"dtype": "float32"}}, "axis": 1, "center": true, "name": "batch_normalization_10", "gamma_constraint": null, "trainable": true, "epsilon": 0.001, "dtype": "float32", "moving_variance_initializer": {"class_name": "Ones", "config": {"dtype": "float32"}}, "beta_regularizer": null, "moving_mean_initializer": {"class_name": "Zeros", "config": {"dtype": "float32"}}, "beta_constraint": null, "gamma_regularizer": null, "scale": true, "momentum": 0.99, "gamma_initializer": {"class_name": "Ones", "config": {"dtype": "float32"}}}, "inbound_nodes": [[["conv2d_10", 0, 0, {}]]], "name": "batch_normalization_10"}, {"class_name": "Activation", "config": {"trainable": true, "activation": "relu", "dtype": "float32", "name": "activation_10"}, "inbound_nodes": [[["batch_normalization_10", 0, 0, {}]]], "name": "activation_10"}, {"class_name": "Conv2D", "config": {"bias_initializer": {"class_name": "Zeros", "config": {"dtype": "float32"}}, "kernel_regularizer": {"class_name": "L1L2", "config": {"l2": 9.999999747378752e-05, "l1": 0.0}}, "kernel_initializer": {"class_name": "VarianceScaling", "config": {"mode": "fan_avg", "scale": 1.0, "seed": null, "dtype": "float32", "distribution": "uniform"}}, "kernel_size": [3, 3], "data_format": "channels_first", "trainable": true, "dilation_rate": [1, 1], "activation": "linear", "bias_constraint": null, "dtype": "float32", "filters": 32, "padding": "same", "activity_regularizer": null, "use_bias": true, "strides": [1, 1], "bias_regularizer": null, "kernel_constraint": null, "name": "conv2d_11"}, "inbound_nodes": [[["activation_10", 0, 0, {}]]], "name": "conv2d_11"}, {"class_name": "BatchNormalization", "config": {"beta_initializer": {"class_name": "Zeros", "config": {"dtype": "float32"}}, "axis": 1, "center": true, "name": "batch_normalization_11", "gamma_constraint": null, "trainable": true, "epsilon": 0.001, "dtype": "float32", "moving_variance_initializer": {"class_name": "Ones", "config": {"dtype": "float32"}}, "beta_regularizer": null, "moving_mean_initializer": {"class_name": "Zeros", "config": {"dtype": "float32"}}, "beta_constraint": null, "gamma_regularizer": null, "scale": true, "momentum": 0.99, "gamma_initializer": {"class_name": "Ones", "config": {"dtype": "float32"}}}, "inbound_nodes": [[["conv2d_11", 0, 0, {}]]], "name": "batch_normalization_11"}, {"class_name": "Add", "config": {"trainable": true, "dtype": "float32", "name": "add_5"}, "inbound_nodes": [[["activation_9", 0, 0, {}], ["batch_normalization_11", 0, 0, {}]]], "name": "add_5"}, {"class_name": "Activation", "config": {"trainable": true, "activation": "relu", "dtype": "float32", "name": "activation_11"}, "inbound_nodes": [[["add_5", 0, 0, {}]]], "name": "activation_11"}, {"class_name": "Conv2D", "config": {"bias_initializer": {"class_name": "Zeros", "config": {"dtype": "float32"}}, "kernel_regularizer": {"class_name": "L1L2", "config": {"l2": 9.999999747378752e-05, "l1": 0.0}}, "kernel_initializer": {"class_name": "VarianceScaling", "config": {"mode": "fan_avg", "scale": 1.0, "seed": null, "dtype": "float32", "distribution": "uniform"}}, "kernel_size": [3, 3], "data_format": "channels_first", "trainable": true, "dilation_rate": [1, 1], "activation": "linear", "bias_constraint": null, "dtype": "float32", "filters": 32, "padding": "same", "activity_regularizer": null, "use_bias": true, "strides": [1, 1], "bias_regularizer": null, "kernel_constraint": null, "name": "conv2d_12"}, "inbound_nodes": [[["activation_11", 0, 0, {}]]], "name": "conv2d_12"}, {"class_name": "BatchNormalization", "config": {"beta_initializer": {"class_name": "Zeros", "config": {"dtype": "float32"}}, "axis": 1, "center": true, "name": "batch_normalization_12", "gamma_constraint": null, "trainable": true, "epsilon": 0.001, "dtype": "float32", "moving_variance_initializer": {"class_name": "Ones", "config": {"dtype": "float32"}}, "beta_regularizer": null, "moving_mean_initializer": {"class_name": "Zeros", "config": {"dtype": "float32"}}, "beta_constraint": null, "gamma_regularizer": null, "scale": true, "momentum": 0.99, "gamma_initializer": {"class_name": "Ones", "config": {"dtype": "float32"}}}, "inbound_nodes": [[["conv2d_12", 0, 0, {}]]], "name": "batch_normalization_12"}, {"class_name": "Activation", "config": {"trainable": true, "activation": "relu", "dtype": "float32", "name": "activation_12"}, "inbound_nodes": [[["batch_normalization_12", 0, 0, {}]]], "name": "activation_12"}, {"class_name": "Conv2D", "config": {"bias_initializer": {"class_name": "Zeros", "config": {"dtype": "float32"}}, "kernel_regularizer": {"class_name": "L1L2", "config": {"l2": 9.999999747378752e-05, "l1": 0.0}}, "kernel_initializer": {"class_name": "VarianceScaling", "config": {"mode": "fan_avg", "scale": 1.0, "seed": null, "dtype": "float32", "distribution": "uniform"}}, "kernel_size": [3, 3], "data_format": "channels_first", "trainable": true, "dilation_rate": [1, 1], "activation": "linear", "bias_constraint": null, "dtype": "float32", "filters": 32, "padding": "same", "activity_regularizer": null, "use_bias": true, "strides": [1, 1], "bias_regularizer": null, "kernel_constraint": null, "name": "conv2d_13"}, "inbound_nodes": [[["activation_12", 0, 0, {}]]], "name": "conv2d_13"}, {"class_name": "BatchNormalization", "config": {"beta_initializer": {"class_name": "Zeros", "config": {"dtype": "float32"}}, "axis": 1, "center": true, "name": "batch_normalization_13", "gamma_constraint": null, "trainable": true, "epsilon": 0.001, "dtype": "float32", "moving_variance_initializer": {"class_name": "Ones", "config": {"dtype": "float32"}}, "beta_regularizer": null, "moving_mean_initializer": {"class_name": "Zeros", "config": {"dtype": "float32"}}, "beta_constraint": null, "gamma_regularizer": null, "scale": true, "momentum": 0.99, "gamma_initializer": {"class_name": "Ones", "config": {"dtype": "float32"}}}, "inbound_nodes": [[["conv2d_13", 0, 0, {}]]], "name": "batch_normalization_13"}, {"class_name": "Add", "config": {"trainable": true, "dtype": "float32", "name": "add_6"}, "inbound_nodes": [[["activation_11", 0, 0, {}], ["batch_normalization_13", 0, 0, {}]]], "name": "add_6"}, {"class_name": "Activation", "config": {"trainable": true, "activation": "relu", "dtype": "float32", "name": "activation_13"}, "inbound_nodes": [[["add_6", 0, 0, {}]]], "name": "activation_13"}, {"class_name": "Conv2D", "config": {"bias_initializer": {"class_name": "Zeros", "config": {"dtype": "float32"}}, "kernel_regularizer": {"class_name": "L1L2", "config": {"l2": 9.999999747378752e-05, "l1": 0.0}}, "kernel_initializer": {"class_name": "VarianceScaling", "config": {"mode": "fan_avg", "scale": 1.0, "seed": null, "dtype": "float32", "distribution": "uniform"}}, "kernel_size": [3, 3], "data_format": "channels_first", "trainable": true, "dilation_rate": [1, 1], "activation": "linear", "bias_constraint": null, "dtype": "float32", "filters": 32, "padding": "same", "activity_regularizer": null, "use_bias": true, "strides": [1, 1], "bias_regularizer": null, "kernel_constraint": null, "name": "conv2d_14"}, "inbound_nodes": [[["activation_13", 0, 0, {}]]], "name": "conv2d_14"}, {"class_name": "BatchNormalization", "config": {"beta_initializer": {"class_name": "Zeros", "config": {"dtype": "float32"}}, "axis": 1, "center": true, "name": "batch_normalization_14", "gamma_constraint": null, "trainable": true, "epsilon": 0.001, "dtype": "float32", "moving_variance_initializer": {"class_name": "Ones", "config": {"dtype": "float32"}}, "beta_regularizer": null, "moving_mean_initializer": {"class_name": "Zeros", "config": {"dtype": "float32"}}, "beta_constraint": null, "gamma_regularizer": null, "scale": true, "momentum": 0.99, "gamma_initializer": {"class_name": "Ones", "config": {"dtype": "float32"}}}, "inbound_nodes": [[["conv2d_14", 0, 0, {}]]], "name": "batch_normalization_14"}, {"class_name": "Activation", "config": {"trainable": true, "activation": "relu", "dtype": "float32", "name": "activation_14"}, "inbound_nodes": [[["batch_normalization_14", 0, 0, {}]]], "name": "activation_14"}, {"class_name": "Conv2D", "config": {"bias_initializer": {"class_name": "Zeros", "config": {"dtype": "float32"}}, "kernel_regularizer": {"class_name": "L1L2", "config": {"l2": 9.999999747378752e-05, "l1": 0.0}}, "kernel_initializer": {"class_name": "VarianceScaling", "config": {"mode": "fan_avg", "scale": 1.0, "seed": null, "dtype": "float32", "distribution": "uniform"}}, "kernel_size": [3, 3], "data_format": "channels_first", "trainable": true, "dilation_rate": [1, 1], "activation": "linear", "bias_constraint": null, "dtype": "float32", "filters": 32, "padding": "same", "activity_regularizer": null, "use_bias": true, "strides": [1, 1], "bias_regularizer": null, "kernel_constraint": null, "name": "conv2d_15"}, "inbound_nodes": [[["activation_14", 0, 0, {}]]], "name": "conv2d_15"}, {"class_name": "BatchNormalization", "config": {"beta_initializer": {"class_name": "Zeros", "config": {"dtype": "float32"}}, "axis": 1, "center": true, "name": "batch_normalization_15", "gamma_constraint": null, "trainable": true, "epsilon": 0.001, "dtype": "float32", "moving_variance_initializer": {"class_name": "Ones", "config": {"dtype": "float32"}}, "beta_regularizer": null, "moving_mean_initializer": {"class_name": "Zeros", "config": {"dtype": "float32"}}, "beta_constraint": null, "gamma_regularizer": null, "scale": true, "momentum": 0.99, "gamma_initializer": {"class_name": "Ones", "config": {"dtype": "float32"}}}, "inbound_nodes": [[["conv2d_15", 0, 0, {}]]], "name": "batch_normalization_15"}, {"class_name": "Add", "config": {"trainable": true, "dtype": "float32", "name": "add_7"}, "inbound_nodes": [[["activation_13", 0, 0, {}], ["batch_normalization_15", 0, 0, {}]]], "name": "add_7"}, {"class_name": "Activation", "config": {"trainable": true, "activation": "relu", "dtype": "float32", "name": "activation_15"}, "inbound_nodes": [[["add_7", 0, 0, {}]]], "name": "activation_15"}, {"class_name": "Conv2D", "config": {"bias_initializer": {"class_name": "Zeros", "config": {"dtype": "float32"}}, "kernel_regularizer": {"class_name": "L1L2", "config": {"l2": 9.999999747378752e-05, "l1": 0.0}}, "kernel_initializer": {"class_name": "VarianceScaling", "config": {"mode": "fan_avg", "scale": 1.0, "seed": null, "dtype": "float32", "distribution": "uniform"}}, "kernel_size": [3, 3], "data_format": "channels_first", "trainable": true, "dilation_rate": [1, 1], "activation": "linear", "bias_constraint": null, "dtype": "float32", "filters": 32, "padding": "same", "activity_regularizer": null, "use_bias": true, "strides": [1, 1], "bias_regularizer": null, "kernel_constraint": null, "name": "conv2d_16"}, "inbound_nodes": [[["activation_15", 0, 0, {}]]], "name": "conv2d_16"}, {"class_name": "BatchNormalization", "config": {"beta_initializer": {"class_name": "Zeros", "config": {"dtype": "float32"}}, "axis": 1, "center": true, "name": "batch_normalization_16", "gamma_constraint": null, "trainable": true, "epsilon": 0.001, "dtype": "float32", "moving_variance_initializer": {"class_name": "Ones", "config": {"dtype": "float32"}}, "beta_regularizer": null, "moving_mean_initializer": {"class_name": "Zeros", "config": {"dtype": "float32"}}, "beta_constraint": null, "gamma_regularizer": null, "scale": true, "momentum": 0.99, "gamma_initializer": {"class_name": "Ones", "config": {"dtype": "float32"}}}, "inbound_nodes": [[["conv2d_16", 0, 0, {}]]], "name": "batch_normalization_16"}, {"class_name": "Activation", "config": {"trainable": true, "activation": "relu", "dtype": "float32", "name": "activation_16"}, "inbound_nodes": [[["batch_normalization_16", 0, 0, {}]]], "name": "activation_16"}, {"class_name": "Conv2D", "config": {"bias_initializer": {"class_name": "Zeros", "config": {"dtype": "float32"}}, "kernel_regularizer": {"class_name": "L1L2", "config": {"l2": 9.999999747378752e-05, "l1": 0.0}}, "kernel_initializer": {"class_name": "VarianceScaling", "config": {"mode": "fan_avg", "scale": 1.0, "seed": null, "dtype": "float32", "distribution": "uniform"}}, "kernel_size": [3, 3], "data_format": "channels_first", "trainable": true, "dilation_rate": [1, 1], "activation": "linear", "bias_constraint": null, "dtype": "float32", "filters": 32, "padding": "same", "activity_regularizer": null, "use_bias": true, "strides": [1, 1], "bias_regularizer": null, "kernel_constraint": null, "name": "conv2d_17"}, "inbound_nodes": [[["activation_16", 0, 0, {}]]], "name": "conv2d_17"}, {"class_name": "BatchNormalization", "config": {"beta_initializer": {"class_name": "Zeros", "config": {"dtype": "float32"}}, "axis": 1, "center": true, "name": "batch_normalization_17", "gamma_constraint": null, "trainable": true, "epsilon": 0.001, "dtype": "float32", "moving_variance_initializer": {"class_name": "Ones", "config": {"dtype": "float32"}}, "beta_regularizer": null, "moving_mean_initializer": {"class_name": "Zeros", "config": {"dtype": "float32"}}, "beta_constraint": null, "gamma_regularizer": null, "scale": true, "momentum": 0.99, "gamma_initializer": {"class_name": "Ones", "config": {"dtype": "float32"}}}, "inbound_nodes": [[["conv2d_17", 0, 0, {}]]], "name": "batch_normalization_17"}, {"class_name": "Add", "config": {"trainable": true, "dtype": "float32", "name": "add_8"}, "inbound_nodes": [[["activation_15", 0, 0, {}], ["batch_normalization_17", 0, 0, {}]]], "name": "add_8"}, {"class_name": "Activation", "config": {"trainable": true, "activation": "relu", "dtype": "float32", "name": "activation_17"}, "inbound_nodes": [[["add_8", 0, 0, {}]]], "name": "activation_17"}, {"class_name": "Conv2D", "config": {"bias_initializer": {"class_name": "Zeros", "config": {"dtype": "float32"}}, "kernel_regularizer": {"class_name": "L1L2", "config": {"l2": 9.999999747378752e-05, "l1": 0.0}}, "kernel_initializer": {"class_name": "VarianceScaling", "config": {"mode": "fan_avg", "scale": 1.0, "seed": null, "dtype": "float32", "distribution": "uniform"}}, "kernel_size": [3, 3], "data_format": "channels_first", "trainable": true, "dilation_rate": [1, 1], "activation": "linear", "bias_constraint": null, "dtype": "float32", "filters": 32, "padding": "same", "activity_regularizer": null, "use_bias": true, "strides": [1, 1], "bias_regularizer": null, "kernel_constraint": null, "name": "conv2d_18"}, "inbound_nodes": [[["activation_17", 0, 0, {}]]], "name": "conv2d_18"}, {"class_name": "BatchNormalization", "config": {"beta_initializer": {"class_name": "Zeros", "config": {"dtype": "float32"}}, "axis": 1, "center": true, "name": "batch_normalization_18", "gamma_constraint": null, "trainable": true, "epsilon": 0.001, "dtype": "float32", "moving_variance_initializer": {"class_name": "Ones", "config": {"dtype": "float32"}}, "beta_regularizer": null, "moving_mean_initializer": {"class_name": "Zeros", "config": {"dtype": "float32"}}, "beta_constraint": null, "gamma_regularizer": null, "scale": true, "momentum": 0.99, "gamma_initializer": {"class_name": "Ones", "config": {"dtype": "float32"}}}, "inbound_nodes": [[["conv2d_18", 0, 0, {}]]], "name": "batch_normalization_18"}, {"class_name": "Activation", "config": {"trainable": true, "activation": "relu", "dtype": "float32", "name": "activation_18"}, "inbound_nodes": [[["batch_normalization_18", 0, 0, {}]]], "name": "activation_18"}, {"class_name": "Conv2D", "config": {"bias_initializer": {"class_name": "Zeros", "config": {"dtype": "float32"}}, "kernel_regularizer": {"class_name": "L1L2", "config": {"l2": 9.999999747378752e-05, "l1": 0.0}}, "kernel_initializer": {"class_name": "VarianceScaling", "config": {"mode": "fan_avg", "scale": 1.0, "seed": null, "dtype": "float32", "distribution": "uniform"}}, "kernel_size": [3, 3], "data_format": "channels_first", "trainable": true, "dilation_rate": [1, 1], "activation": "linear", "bias_constraint": null, "dtype": "float32", "filters": 32, "padding": "same", "activity_regularizer": null, "use_bias": true, "strides": [1, 1], "bias_regularizer": null, "kernel_constraint": null, "name": "conv2d_19"}, "inbound_nodes": [[["activation_18", 0, 0, {}]]], "name": "conv2d_19"}, {"class_name": "BatchNormalization", "config": {"beta_initializer": {"class_name": "Zeros", "config": {"dtype": "float32"}}, "axis": 1, "center": true, "name": "batch_normalization_19", "gamma_constraint": null, "trainable": true, "epsilon": 0.001, "dtype": "float32", "moving_variance_initializer": {"class_name": "Ones", "config": {"dtype": "float32"}}, "beta_regularizer": null, "moving_mean_initializer": {"class_name": "Zeros", "config": {"dtype": "float32"}}, "beta_constraint": null, "gamma_regularizer": null, "scale": true, "momentum": 0.99, "gamma_initializer": {"class_name": "Ones", "config": {"dtype": "float32"}}}, "inbound_nodes": [[["conv2d_19", 0, 0, {}]]], "name": "batch_normalization_19"}, {"class_name": "Add", "config": {"trainable": true, "dtype": "float32", "name": "add_9"}, "inbound_nodes": [[["activation_17", 0, 0, {}], ["batch_normalization_19", 0, 0, {}]]], "name": "add_9"}, {"class_name": "Activation", "config": {"trainable": true, "activation": "relu", "dtype": "float32", "name": "activation_19"}, "inbound_nodes": [[["add_9", 0, 0, {}]]], "name": "activation_19"}, {"class_name": "Conv2D", "config": {"bias_initializer": {"class_name": "Zeros", "config": {"dtype": "float32"}}, "kernel_regularizer": {"class_name": "L1L2", "config": {"l2": 9.999999747378752e-05, "l1": 0.0}}, "kernel_initializer": {"class_name": "VarianceScaling", "config": {"mode": "fan_avg", "scale": 1.0, "seed": null, "dtype": "float32", "distribution": "uniform"}}, "kernel_size": [3, 3], "data_format": "channels_first", "trainable": true, "dilation_rate": [1, 1], "activation": "linear", "bias_constraint": null, "dtype": "float32", "filters": 32, "padding": "same", "activity_regularizer": null, "use_bias": true, "strides": [1, 1], "bias_regularizer": null, "kernel_constraint": null, "name": "conv2d_20"}, "inbound_nodes": [[["activation_19", 0, 0, {}]]], "name": "conv2d_20"}, {"class_name": "BatchNormalization", "config": {"beta_initializer": {"class_name": "Zeros", "config": {"dtype": "float32"}}, "axis": 1, "center": true, "name": "batch_normalization_20", "gamma_constraint": null, "trainable": true, "epsilon": 0.001, "dtype": "float32", "moving_variance_initializer": {"class_name": "Ones", "config": {"dtype": "float32"}}, "beta_regularizer": null, "moving_mean_initializer": {"class_name": "Zeros", "config": {"dtype": "float32"}}, "beta_constraint": null, "gamma_regularizer": null, "scale": true, "momentum": 0.99, "gamma_initializer": {"class_name": "Ones", "config": {"dtype": "float32"}}}, "inbound_nodes": [[["conv2d_20", 0, 0, {}]]], "name": "batch_normalization_20"}, {"class_name": "Activation", "config": {"trainable": true, "activation": "relu", "dtype": "float32", "name": "activation_20"}, "inbound_nodes": [[["batch_normalization_20", 0, 0, {}]]], "name": "activation_20"}, {"class_name": "Conv2D", "config": {"bias_initializer": {"class_name": "Zeros", "config": {"dtype": "float32"}}, "kernel_regularizer": {"class_name": "L1L2", "config": {"l2": 9.999999747378752e-05, "l1": 0.0}}, "kernel_initializer": {"class_name": "VarianceScaling", "config": {"mode": "fan_avg", "scale": 1.0, "seed": null, "dtype": "float32", "distribution": "uniform"}}, "kernel_size": [3, 3], "data_format": "channels_first", "trainable": true, "dilation_rate": [1, 1], "activation": "linear", "bias_constraint": null, "dtype": "float32", "filters": 32, "padding": "same", "activity_regularizer": null, "use_bias": true, "strides": [1, 1], "bias_regularizer": null, "kernel_constraint": null, "name": "conv2d_21"}, "inbound_nodes": [[["activation_20", 0, 0, {}]]], "name": "conv2d_21"}, {"class_name": "BatchNormalization", "config": {"beta_initializer": {"class_name": "Zeros", "config": {"dtype": "float32"}}, "axis": 1, "center": true, "name": "batch_normalization_21", "gamma_constraint": null, "trainable": true, "epsilon": 0.001, "dtype": "float32", "moving_variance_initializer": {"class_name": "Ones", "config": {"dtype": "float32"}}, "beta_regularizer": null, "moving_mean_initializer": {"class_name": "Zeros", "config": {"dtype": "float32"}}, "beta_constraint": null, "gamma_regularizer": null, "scale": true, "momentum": 0.99, "gamma_initializer": {"class_name": "Ones", "config": {"dtype": "float32"}}}, "inbound_nodes": [[["conv2d_21", 0, 0, {}]]], "name": "batch_normalization_21"}, {"class_name": "Add", "config": {"trainable": true, "dtype": "float32", "name": "add_10"}, "inbound_nodes": [[["activation_19", 0, 0, {}], ["batch_normalization_21", 0, 0, {}]]], "name": "add_10"}, {"class_name": "Activation", "config": {"trainable": true, "activation": "relu", "dtype": "float32", "name": "activation_21"}, "inbound_nodes": [[["add_10", 0, 0, {}]]], "name": "activation_21"}, {"class_name": "Conv2D", "config": {"bias_initializer": {"class_name": "Zeros", "config": {"dtype": "float32"}}, "kernel_regularizer": {"class_name": "L1L2", "config": {"l2": 9.999999747378752e-05, "l1": 0.0}}, "kernel_initializer": {"class_name": "VarianceScaling", "config": {"mode": "fan_avg", "scale": 1.0, "seed": null, "dtype": "float32", "distribution": "uniform"}}, "kernel_size": [1, 1], "data_format": "channels_first", "trainable": true, "dilation_rate": [1, 1], "activation": "linear", "bias_constraint": null, "dtype": "float32", "filters": 4, "padding": "valid", "activity_regularizer": null, "use_bias": true, "strides": [1, 1], "bias_regularizer": null, "kernel_constraint": null, "name": "conv2d_23"}, "inbound_nodes": [[["activation_21", 0, 0, {}]]], "name": "conv2d_23"}, {"class_name": "BatchNormalization", "config": {"beta_initializer": {"class_name": "Zeros", "config": {"dtype": "float32"}}, "axis": 1, "center": true, "name": "batch_normalization_23", "gamma_constraint": null, "trainable": true, "epsilon": 0.001, "dtype": "float32", "moving_variance_initializer": {"class_name": "Ones", "config": {"dtype": "float32"}}, "beta_regularizer": null, "moving_mean_initializer": {"class_name": "Zeros", "config": {"dtype": "float32"}}, "beta_constraint": null, "gamma_regularizer": null, "scale": true, "momentum": 0.99, "gamma_initializer": {"class_name": "Ones", "config": {"dtype": "float32"}}}, "inbound_nodes": [[["conv2d_23", 0, 0, {}]]], "name": "batch_normalization_23"}, {"class_name": "Activation", "config": {"trainable": true, "activation": "relu", "dtype": "float32", "name": "activation_23"}, "inbound_nodes": [[["batch_normalization_23", 0, 0, {}]]], "name": "activation_23"}, {"class_name": "Conv2D", "config": {"bias_initializer": {"class_name": "Zeros", "config": {"dtype": "float32"}}, "kernel_regularizer": {"class_name": "L1L2", "config": {"l2": 9.999999747378752e-05, "l1": 0.0}}, "kernel_initializer": {"class_name": "VarianceScaling", "config": {"mode": "fan_avg", "scale": 1.0, "seed": null, "dtype": "float32", "distribution": "uniform"}}, "kernel_size": [1, 1], "data_format": "channels_first", "trainable": true, "dilation_rate": [1, 1], "activation": "linear", "bias_constraint": null, "dtype": "float32", "filters": 4, "padding": "valid", "activity_regularizer": null, "use_bias": true, "strides": [1, 1], "bias_regularizer": null, "kernel_constraint": null, "name": "conv2d_22"}, "inbound_nodes": [[["activation_21", 0, 0, {}]]], "name": "conv2d_22"}, {"class_name": "Flatten", "config": {"trainable": true, "dtype": "float32", "name": "flatten_2"}, "inbound_nodes": [[["activation_23", 0, 0, {}]]], "name": "flatten_2"}, {"class_name": "BatchNormalization", "config": {"beta_initializer": {"class_name": "Zeros", "config": {"dtype": "float32"}}, "axis": 1, "center": true, "name": "batch_normalization_22", "gamma_constraint": null, "trainable": true, "epsilon": 0.001, "dtype": "float32", "moving_variance_initializer": {"class_name": "Ones", "config": {"dtype": "float32"}}, "beta_regularizer": null, "moving_mean_initializer": {"class_name": "Zeros", "config": {"dtype": "float32"}}, "beta_constraint": null, "gamma_regularizer": null, "scale": true, "momentum": 0.99, "gamma_initializer": {"class_name": "Ones", "config": {"dtype": "float32"}}}, "inbound_nodes": [[["conv2d_22", 0, 0, {}]]], "name": "batch_normalization_22"}, {"class_name": "Dense", "config": {"bias_initializer": {"class_name": "Zeros", "config": {"dtype": "float32"}}, "kernel_regularizer": {"class_name": "L1L2", "config": {"l2": 9.999999747378752e-05, "l1": 0.0}}, "kernel_initializer": {"class_name": "VarianceScaling", "config": {"mode": "fan_avg", "scale": 1.0, "seed": null, "dtype": "float32", "distribution": "uniform"}}, "activation": "linear", "bias_regularizer": null, "trainable": true, "units": 128, "dtype": "float32", "bias_constraint": null, "activity_regularizer": null, "use_bias": true, "kernel_constraint": null, "name": "dense_1"}, "inbound_nodes": [[["flatten_2", 0, 0, {}]]], "name": "dense_1"}, {"class_name": "Activation", "config": {"trainable": true, "activation": "relu", "dtype": "float32", "name": "activation_22"}, "inbound_nodes": [[["batch_normalization_22", 0, 0, {}]]], "name": "activation_22"}, {"class_name": "BatchNormalization", "config": {"beta_initializer": {"class_name": "Zeros", "config": {"dtype": "float32"}}, "axis": 1, "center": true, "name": "batch_normalization_24", "gamma_constraint": null, "trainable": true, "epsilon": 0.001, "dtype": "float32", "moving_variance_initializer": {"class_name": "Ones", "config": {"dtype": "float32"}}, "beta_regularizer": null, "moving_mean_initializer": {"class_name": "Zeros", "config": {"dtype": "float32"}}, "beta_constraint": null, "gamma_regularizer": null, "scale": true, "momentum": 0.99, "gamma_initializer": {"class_name": "Ones", "config": {"dtype": "float32"}}}, "inbound_nodes": [[["dense_1", 0, 0, {}]]], "name": "batch_normalization_24"}, {"class_name": "Flatten", "config": {"trainable": true, "dtype": "float32", "name": "flatten_1"}, "inbound_nodes": [[["activation_22", 0, 0, {}]]], "name": "flatten_1"}, {"class_name": "Activation", "config": {"trainable": true, "activation": "relu", "dtype": "float32", "name": "activation_24"}, "inbound_nodes": [[["batch_normalization_24", 0, 0, {}]]], "name": "activation_24"}, {"class_name": "Dense", "config": {"bias_initializer": {"class_name": "Zeros", "config": {"dtype": "float32"}}, "kernel_regularizer": {"class_name": "L1L2", "config": {"l2": 9.999999747378752e-05, "l1": 0.0}}, "kernel_initializer": {"class_name": "VarianceScaling", "config": {"mode": "fan_avg", "scale": 1.0, "seed": null, "dtype": "float32", "distribution": "uniform"}}, "activation": "softmax", "bias_regularizer": null, "trainable": true, "units": 7, "dtype": "float32", "bias_constraint": null, "activity_regularizer": null, "use_bias": true, "kernel_constraint": null, "name": "policy_out"}, "inbound_nodes": [[["flatten_1", 0, 0, {}]]], "name": "policy_out"}, {"class_name": "Dense", "config": {"bias_initializer": {"class_name": "Zeros", "config": {"dtype": "float32"}}, "kernel_regularizer": {"class_name": "L1L2", "config": {"l2": 9.999999747378752e-05, "l1": 0.0}}, "kernel_initializer": {"class_name": "VarianceScaling", "config": {"mode": "fan_avg", "scale": 1.0, "seed": null, "dtype": "float32", "distribution": "uniform"}}, "activation": "tanh", "bias_regularizer": null, "trainable": true, "units": 1, "dtype": "float32", "bias_constraint": null, "activity_regularizer": null, "use_bias": true, "kernel_constraint": null, "name": "value_out"}, "inbound_nodes": [[["activation_24", 0, 0, {}]]], "name": "value_out"}], "name": "c4_model"}}}}