{"weightsManifest": [{"paths": ["group1-shard1of1"], "weights": [{"name": "batch_normalization_1/gamma", "shape": [32], "dtype": "float32"}, {"name": "batch_normalization_1/beta", "shape": [32], "dtype": "float32"}, {"name": "batch_normalization_1/moving_mean", "shape": [32], "dtype": "float32"}, {"name": "batch_normalization_1/moving_variance", "shape": [32], "dtype": "float32"}]}, {"paths": ["group2-shard1of1"], "weights": [{"name": "batch_normalization_10/gamma", "shape": [32], "dtype": "float32"}, {"name": "batch_normalization_10/beta", "shape": [32], "dtype": "float32"}, {"name": "batch_normalization_10/moving_mean", "shape": [32], "dtype": "float32"}, {"name": "batch_normalization_10/moving_variance", "shape": [32], "dtype": "float32"}]}, {"paths": ["group3-shard1of1"], "weights": [{"name": "batch_normalization_11/gamma", "shape": [32], "dtype": "float32"}, {"name": "batch_normalization_11/beta", "shape": [32], "dtype": "float32"}, {"name": "batch_normalization_11/moving_mean", "shape": [32], "dtype": "float32"}, {"name": "batch_normalization_11/moving_variance", "shape": [32], "dtype": "float32"}]}, {"paths": ["group4-shard1of1"], "weights": [{"name": "batch_normalization_12/gamma", "shape": [32], "dtype": "float32"}, {"name": "batch_normalization_12/beta", "shape": [32], "dtype": "float32"}, {"name": "batch_normalization_12/moving_mean", "shape": [32], "dtype": "float32"}, {"name": "batch_normalization_12/moving_variance", "shape": [32], "dtype": "float32"}]}, {"paths": ["group5-shard1of1"], "weights": [{"name": "batch_normalization_13/gamma", "shape": [32], "dtype": "float32"}, {"name": "batch_normalization_13/beta", "shape": [32], "dtype": "float32"}, {"name": "batch_normalization_13/moving_mean", "shape": [32], "dtype": "float32"}, {"name": "batch_normalization_13/moving_variance", "shape": [32], "dtype": "float32"}]}, {"paths": ["group6-shard1of1"], "weights": [{"name": "batch_normalization_14/gamma", "shape": [32], "dtype": "float32"}, {"name": "batch_normalization_14/beta", "shape": [32], "dtype": "float32"}, {"name": "batch_normalization_14/moving_mean", "shape": [32], "dtype": "float32"}, {"name": "batch_normalization_14/moving_variance", "shape": [32], "dtype": "float32"}]}, {"paths": ["group7-shard1of1"], "weights": [{"name": "batch_normalization_15/gamma", "shape": [32], "dtype": "float32"}, {"name": "batch_normalization_15/beta", "shape": [32], "dtype": "float32"}, {"name": "batch_normalization_15/moving_mean", "shape": [32], "dtype": "float32"}, {"name": "batch_normalization_15/moving_variance", "shape": [32], "dtype": "float32"}]}, {"paths": ["group8-shard1of1"], "weights": [{"name": "batch_normalization_16/gamma", "shape": [32], "dtype": "float32"}, {"name": "batch_normalization_16/beta", "shape": [32], "dtype": "float32"}, {"name": "batch_normalization_16/moving_mean", "shape": [32], "dtype": "float32"}, {"name": "batch_normalization_16/moving_variance", "shape": [32], "dtype": "float32"}]}, {"paths": ["group9-shard1of1"], "weights": [{"name": "batch_normalization_17/gamma", "shape": [32], "dtype": "float32"}, {"name": "batch_normalization_17/beta", "shape": [32], "dtype": "float32"}, {"name": "batch_normalization_17/moving_mean", "shape": [32], "dtype": "float32"}, {"name": "batch_normalization_17/moving_variance", "shape": [32], "dtype": "float32"}]}, {"paths": ["group10-shard1of1"], "weights": [{"name": "batch_normalization_18/gamma", "shape": [32], "dtype": "float32"}, {"name": "batch_normalization_18/beta", "shape": [32], "dtype": "float32"}, {"name": "batch_normalization_18/moving_mean", "shape": [32], "dtype": "float32"}, {"name": "batch_normalization_18/moving_variance", "shape": [32], "dtype": "float32"}]}, {"paths": ["group11-shard1of1"], "weights": [{"name": "batch_normalization_19/gamma", "shape": [32], "dtype": "float32"}, {"name": "batch_normalization_19/beta", "shape": [32], "dtype": "float32"}, {"name": "batch_normalization_19/moving_mean", "shape": [32], "dtype": "float32"}, {"name": "batch_normalization_19/moving_variance", "shape": [32], "dtype": "float32"}]}, {"paths": ["group12-shard1of1"], "weights": [{"name": "batch_normalization_2/gamma", "shape": [32], "dtype": "float32"}, {"name": "batch_normalization_2/beta", "shape": [32], "dtype": "float32"}, {"name": "batch_normalization_2/moving_mean", "shape": [32], "dtype": "float32"}, {"name": "batch_normalization_2/moving_variance", "shape": [32], "dtype": "float32"}]}, {"paths": ["group13-shard1of1"], "weights": [{"name": "batch_normalization_20/gamma", "shape": [32], "dtype": "float32"}, {"name": "batch_normalization_20/beta", "shape": [32], "dtype": "float32"}, {"name": "batch_normalization_20/moving_mean", "shape": [32], "dtype": "float32"}, {"name": "batch_normalization_20/moving_variance", "shape": [32], "dtype": "float32"}]}, {"paths": ["group14-shard1of1"], "weights": [{"name": "batch_normalization_21/gamma", "shape": [32], "dtype": "float32"}, {"name": "batch_normalization_21/beta", "shape": [32], "dtype": "float32"}, {"name": "batch_normalization_21/moving_mean", "shape": [32], "dtype": "float32"}, {"name": "batch_normalization_21/moving_variance", "shape": [32], "dtype": "float32"}]}, {"paths": ["group15-shard1of1"], "weights": [{"name": "batch_normalization_22/gamma", "shape": [4], "dtype": "float32"}, {"name": "batch_normalization_22/beta", "shape": [4], "dtype": "float32"}, {"name": "batch_normalization_22/moving_mean", "shape": [4], "dtype": "float32"}, {"name": "batch_normalization_22/moving_variance", "shape": [4], "dtype": "float32"}]}, {"paths": ["group16-shard1of1"], "weights": [{"name": "batch_normalization_23/gamma", "shape": [4], "dtype": "float32"}, {"name": "batch_normalization_23/beta", "shape": [4], "dtype": "float32"}, {"name": "batch_normalization_23/moving_mean", "shape": [4], "dtype": "float32"}, {"name": "batch_normalization_23/moving_variance", "shape": [4], "dtype": "float32"}]}, {"paths": ["group17-shard1of1"], "weights": [{"name": "batch_normalization_24/gamma", "shape": [128], "dtype": "float32"}, {"name": "batch_normalization_24/beta", "shape": [128], "dtype": "float32"}, {"name": "batch_normalization_24/moving_mean", "shape": [128], "dtype": "float32"}, {"name": "batch_normalization_24/moving_variance", "shape": [128], "dtype": "float32"}]}, {"paths": ["group18-shard1of1"], "weights": [{"name": "batch_normalization_3/gamma", "shape": [32], "dtype": "float32"}, {"name": "batch_normalization_3/beta", "shape": [32], "dtype": "float32"}, {"name": "batch_normalization_3/moving_mean", "shape": [32], "dtype": "float32"}, {"name": "batch_normalization_3/moving_variance", "shape": [32], "dtype": "float32"}]}, {"paths": ["group19-shard1of1"], "weights": [{"name": "batch_normalization_4/gamma", "shape": [32], "dtype": "float32"}, {"name": "batch_normalization_4/beta", "shape": [32], "dtype": "float32"}, {"name": "batch_normalization_4/moving_mean", "shape": [32], "dtype": "float32"}, {"name": "batch_normalization_4/moving_variance", "shape": [32], "dtype": "float32"}]}, {"paths": ["group20-shard1of1"], "weights": [{"name": "batch_normalization_5/gamma", "shape": [32], "dtype": "float32"}, {"name": "batch_normalization_5/beta", "shape": [32], "dtype": "float32"}, {"name": "batch_normalization_5/moving_mean", "shape": [32], "dtype": "float32"}, {"name": "batch_normalization_5/moving_variance", "shape": [32], "dtype": "float32"}]}, {"paths": ["group21-shard1of1"], "weights": [{"name": "batch_normalization_6/gamma", "shape": [32], "dtype": "float32"}, {"name": "batch_normalization_6/beta", "shape": [32], "dtype": "float32"}, {"name": "batch_normalization_6/moving_mean", "shape": [32], "dtype": "float32"}, {"name": "batch_normalization_6/moving_variance", "shape": [32], "dtype": "float32"}]}, {"paths": ["group22-shard1of1"], "weights": [{"name": "batch_normalization_7/gamma", "shape": [32], "dtype": "float32"}, {"name": "batch_normalization_7/beta", "shape": [32], "dtype": "float32"}, {"name": "batch_normalization_7/moving_mean", "shape": [32], "dtype": "float32"}, {"name": "batch_normalization_7/moving_variance", "shape": [32], "dtype": "float32"}]}, {"paths": ["group23-shard1of1"], "weights": [{"name": "batch_normalization_8/gamma", "shape": [32], "dtype": "float32"}, {"name": "batch_normalization_8/beta", "shape": [32], "dtype": "float32"}, {"name": "batch_normalization_8/moving_mean", "shape": [32], "dtype": "float32"}, {"name": "batch_normalization_8/moving_variance", "shape": [32], "dtype": "float32"}]}, {"paths": ["group24-shard1of1"], "weights": [{"name": "batch_normalization_9/gamma", "shape": [32], "dtype": "float32"}, {"name": "batch_normalization_9/beta", "shape": [32], "dtype": "float32"}, {"name": "batch_normalization_9/moving_mean", "shape": [32], "dtype": "float32"}, {"name": "batch_normalization_9/moving_variance", "shape": [32], "dtype": "float32"}]}, {"paths": ["group25-shard1of1"], "weights": [{"name": "conv2d_1/kernel", "shape": [3, 3, 2, 32], "dtype": "float32"}, {"name": "conv2d_1/bias", "shape": [32], "dtype": "float32"}]}, {"paths": ["group26-shard1of1"], "weights": [{"name": "conv2d_10/kernel", "shape": [3, 3, 32, 32], "dtype": "float32"}, {"name": "conv2d_10/bias", "shape": [32], "dtype": "float32"}]}, {"paths": ["group27-shard1of1"], "weights": [{"name": "conv2d_11/kernel", "shape": [3, 3, 32, 32], "dtype": "float32"}, {"name": "conv2d_11/bias", "shape": [32], "dtype": "float32"}]}, {"paths": ["group28-shard1of1"], "weights": [{"name": "conv2d_12/kernel", "shape": [3, 3, 32, 32], "dtype": "float32"}, {"name": "conv2d_12/bias", "shape": [32], "dtype": "float32"}]}, {"paths": ["group29-shard1of1"], "weights": [{"name": "conv2d_13/kernel", "shape": [3, 3, 32, 32], "dtype": "float32"}, {"name": "conv2d_13/bias", "shape": [32], "dtype": "float32"}]}, {"paths": ["group30-shard1of1"], "weights": [{"name": "conv2d_14/kernel", "shape": [3, 3, 32, 32], "dtype": "float32"}, {"name": "conv2d_14/bias", "shape": [32], "dtype": "float32"}]}, {"paths": ["group31-shard1of1"], "weights": [{"name": "conv2d_15/kernel", "shape": [3, 3, 32, 32], "dtype": "float32"}, {"name": "conv2d_15/bias", "shape": [32], "dtype": "float32"}]}, {"paths": ["group32-shard1of1"], "weights": [{"name": "conv2d_16/kernel", "shape": [3, 3, 32, 32], "dtype": "float32"}, {"name": "conv2d_16/bias", "shape": [32], "dtype": "float32"}]}, {"paths": ["group33-shard1of1"], "weights": [{"name": "conv2d_17/kernel", "shape": [3, 3, 32, 32], "dtype": "float32"}, {"name": "conv2d_17/bias", "shape": [32], "dtype": "float32"}]}, {"paths": ["group34-shard1of1"], "weights": [{"name": "conv2d_18/kernel", "shape": [3, 3, 32, 32], "dtype": "float32"}, {"name": "conv2d_18/bias", "shape": [32], "dtype": "float32"}]}, {"paths": ["group35-shard1of1"], "weights": [{"name": "conv2d_19/kernel", "shape": [3, 3, 32, 32], "dtype": "float32"}, {"name": "conv2d_19/bias", "shape": [32], "dtype": "float32"}]}, {"paths": ["group36-shard1of1"], "weights": [{"name": "conv2d_2/kernel", "shape": [3, 3, 32, 32], "dtype": "float32"}, {"name": "conv2d_2/bias", "shape": [32], "dtype": "float32"}]}, {"paths": ["group37-shard1of1"], "weights": [{"name": "conv2d_20/kernel", "shape": [3, 3, 32, 32], "dtype": "float32"}, {"name": "conv2d_20/bias", "shape": [32], "dtype": "float32"}]}, {"paths": ["group38-shard1of1"], "weights": [{"name": "conv2d_21/kernel", "shape": [3, 3, 32, 32], "dtype": "float32"}, {"name": "conv2d_21/bias", "shape": [32], "dtype": "float32"}]}, {"paths": ["group39-shard1of1"], "weights": [{"name": "conv2d_22/kernel", "shape": [1, 1, 32, 4], "dtype": "float32"}, {"name": "conv2d_22/bias", "shape": [4], "dtype": "float32"}]}, {"paths": ["group40-shard1of1"], "weights": [{"name": "conv2d_23/kernel", "shape": [1, 1, 32, 4], "dtype": "float32"}, {"name": "conv2d_23/bias", "shape": [4], "dtype": "float32"}]}, {"paths": ["group41-shard1of1"], "weights": [{"name": "conv2d_3/kernel", "shape": [3, 3, 32, 32], "dtype": "float32"}, {"name": "conv2d_3/bias", "shape": [32], "dtype": "float32"}]}, {"paths": ["group42-shard1of1"], "weights": [{"name": "conv2d_4/kernel", "shape": [3, 3, 32, 32], "dtype": "float32"}, {"name": "conv2d_4/bias", "shape": [32], "dtype": "float32"}]}, {"paths": ["group43-shard1of1"], "weights": [{"name": "conv2d_5/kernel", "shape": [3, 3, 32, 32], "dtype": "float32"}, {"name": "conv2d_5/bias", "shape": [32], "dtype": "float32"}]}, {"paths": ["group44-shard1of1"], "weights": [{"name": "conv2d_6/kernel", "shape": [3, 3, 32, 32], "dtype": "float32"}, {"name": "conv2d_6/bias", "shape": [32], "dtype": "float32"}]}, {"paths": ["group45-shard1of1"], "weights": [{"name": "conv2d_7/kernel", "shape": [3, 3, 32, 32], "dtype": "float32"}, {"name": "conv2d_7/bias", "shape": [32], "dtype": "float32"}]}, {"paths": ["group46-shard1of1"], "weights": [{"name": "conv2d_8/kernel", "shape": [3, 3, 32, 32], "dtype": "float32"}, {"name": "conv2d_8/bias", "shape": [32], "dtype": "float32"}]}, {"paths": ["group47-shard1of1"], "weights": [{"name": "conv2d_9/kernel", "shape": [3, 3, 32, 32], "dtype": "float32"}, {"name": "conv2d_9/bias", "shape": [32], "dtype": "float32"}]}, {"paths": ["group48-shard1of1"], "weights": [{"name": "dense_1/kernel", "shape": [168, 128], "dtype": "float32"}, {"name": "dense_1/bias", "shape": [128], "dtype": "float32"}]}, {"paths": ["group49-shard1of1"], "weights": [{"name": "policy_out/kernel", "shape": [168, 7], "dtype": "float32"}, {"name": "policy_out/bias", "shape": [7], "dtype": "float32"}]}, {"paths": ["group50-shard1of1"], "weights": [{"name": "value_out/kernel", "shape": [128, 1], "dtype": "float32"}, {"name": "value_out/bias", "shape": [1], "dtype": "float32"}]}], "modelTopology": {"backend": "tensorflow", "keras_version": "2.0.8-tf", "model_config": {"config": {"layers": [{"config": {"sparse": false, "batch_input_shape": [null, 2, 6, 7], "name": "input_1", "dtype": "float32"}, "name": "input_1", "inbound_nodes": [], "class_name": "InputLayer"}, {"config": {"padding": "same", "bias_constraint": null, "use_bias": true, "trainable": true, "kernel_size": [3, 3], "activation": "linear", "dtype": "float32", "kernel_constraint": null, "data_format": "channels_first", "kernel_initializer": {"config": {"dtype": "float32", "seed": null, "mode": "fan_avg", "distribution": "uniform", "scale": 1.0}, "class_name": "VarianceScaling"}, "filters": 32, "kernel_regularizer": {"config": {"l1": 0.0, "l2": 9.999999747378752e-05}, "class_name": "L1L2"}, "name": "conv2d_1", "strides": [1, 1], "bias_regularizer": null, "bias_initializer": {"config": {"dtype": "float32"}, "class_name": "Zeros"}, "dilation_rate": [1, 1], "activity_regularizer": null}, "name": "conv2d_1", "inbound_nodes": [[["input_1", 0, 0, {}]]], "class_name": "Conv2D"}, {"config": {"trainable": true, "epsilon": 0.001, "moving_mean_initializer": {"config": {"dtype": "float32"}, "class_name": "Zeros"}, "moving_variance_initializer": {"config": {"dtype": "float32"}, "class_name": "Ones"}, "dtype": "float32", "scale": true, "beta_initializer": {"config": {"dtype": "float32"}, "class_name": "Zeros"}, "beta_regularizer": null, "gamma_regularizer": null, "momentum": 0.99, "beta_constraint": null, "gamma_constraint": null, "name": "batch_normalization_1", "center": true, "gamma_initializer": {"config": {"dtype": "float32"}, "class_name": "Ones"}, "axis": 1}, "name": "batch_normalization_1", "inbound_nodes": [[["conv2d_1", 0, 0, {}]]], "class_name": "BatchNormalization"}, {"config": {"dtype": "float32", "activation": "relu", "name": "activation_1", "trainable": true}, "name": "activation_1", "inbound_nodes": [[["batch_normalization_1", 0, 0, {}]]], "class_name": "Activation"}, {"config": {"padding": "same", "bias_constraint": null, "use_bias": true, "trainable": true, "kernel_size": [3, 3], "activation": "linear", "dtype": "float32", "kernel_constraint": null, "data_format": "channels_first", "kernel_initializer": {"config": {"dtype": "float32", "seed": null, "mode": "fan_avg", "distribution": "uniform", "scale": 1.0}, "class_name": "VarianceScaling"}, "filters": 32, "kernel_regularizer": {"config": {"l1": 0.0, "l2": 9.999999747378752e-05}, "class_name": "L1L2"}, "name": "conv2d_2", "strides": [1, 1], "bias_regularizer": null, "bias_initializer": {"config": {"dtype": "float32"}, "class_name": "Zeros"}, "dilation_rate": [1, 1], "activity_regularizer": null}, "name": "conv2d_2", "inbound_nodes": [[["activation_1", 0, 0, {}]]], "class_name": "Conv2D"}, {"config": {"trainable": true, "epsilon": 0.001, "moving_mean_initializer": {"config": {"dtype": "float32"}, "class_name": "Zeros"}, "moving_variance_initializer": {"config": {"dtype": "float32"}, "class_name": "Ones"}, "dtype": "float32", "scale": true, "beta_initializer": {"config": {"dtype": "float32"}, "class_name": "Zeros"}, "beta_regularizer": null, "gamma_regularizer": null, "momentum": 0.99, "beta_constraint": null, "gamma_constraint": null, "name": "batch_normalization_2", "center": true, "gamma_initializer": {"config": {"dtype": "float32"}, "class_name": "Ones"}, "axis": 1}, "name": "batch_normalization_2", "inbound_nodes": [[["conv2d_2", 0, 0, {}]]], "class_name": "BatchNormalization"}, {"config": {"dtype": "float32", "activation": "relu", "name": "activation_2", "trainable": true}, "name": "activation_2", "inbound_nodes": [[["batch_normalization_2", 0, 0, {}]]], "class_name": "Activation"}, {"config": {"padding": "same", "bias_constraint": null, "use_bias": true, "trainable": true, "kernel_size": [3, 3], "activation": "linear", "dtype": "float32", "kernel_constraint": null, "data_format": "channels_first", "kernel_initializer": {"config": {"dtype": "float32", "seed": null, "mode": "fan_avg", "distribution": "uniform", "scale": 1.0}, "class_name": "VarianceScaling"}, "filters": 32, "kernel_regularizer": {"config": {"l1": 0.0, "l2": 9.999999747378752e-05}, "class_name": "L1L2"}, "name": "conv2d_3", "strides": [1, 1], "bias_regularizer": null, "bias_initializer": {"config": {"dtype": "float32"}, "class_name": "Zeros"}, "dilation_rate": [1, 1], "activity_regularizer": null}, "name": "conv2d_3", "inbound_nodes": [[["activation_2", 0, 0, {}]]], "class_name": "Conv2D"}, {"config": {"trainable": true, "epsilon": 0.001, "moving_mean_initializer": {"config": {"dtype": "float32"}, "class_name": "Zeros"}, "moving_variance_initializer": {"config": {"dtype": "float32"}, "class_name": "Ones"}, "dtype": "float32", "scale": true, "beta_initializer": {"config": {"dtype": "float32"}, "class_name": "Zeros"}, "beta_regularizer": null, "gamma_regularizer": null, "momentum": 0.99, "beta_constraint": null, "gamma_constraint": null, "name": "batch_normalization_3", "center": true, "gamma_initializer": {"config": {"dtype": "float32"}, "class_name": "Ones"}, "axis": 1}, "name": "batch_normalization_3", "inbound_nodes": [[["conv2d_3", 0, 0, {}]]], "class_name": "BatchNormalization"}, {"config": {"dtype": "float32", "name": "add_1", "trainable": true}, "name": "add_1", "inbound_nodes": [[["activation_1", 0, 0, {}], ["batch_normalization_3", 0, 0, {}]]], "class_name": "Add"}, {"config": {"dtype": "float32", "activation": "relu", "name": "activation_3", "trainable": true}, "name": "activation_3", "inbound_nodes": [[["add_1", 0, 0, {}]]], "class_name": "Activation"}, {"config": {"padding": "same", "bias_constraint": null, "use_bias": true, "trainable": true, "kernel_size": [3, 3], "activation": "linear", "dtype": "float32", "kernel_constraint": null, "data_format": "channels_first", "kernel_initializer": {"config": {"dtype": "float32", "seed": null, "mode": "fan_avg", "distribution": "uniform", "scale": 1.0}, "class_name": "VarianceScaling"}, "filters": 32, "kernel_regularizer": {"config": {"l1": 0.0, "l2": 9.999999747378752e-05}, "class_name": "L1L2"}, "name": "conv2d_4", "strides": [1, 1], "bias_regularizer": null, "bias_initializer": {"config": {"dtype": "float32"}, "class_name": "Zeros"}, "dilation_rate": [1, 1], "activity_regularizer": null}, "name": "conv2d_4", "inbound_nodes": [[["activation_3", 0, 0, {}]]], "class_name": "Conv2D"}, {"config": {"trainable": true, "epsilon": 0.001, "moving_mean_initializer": {"config": {"dtype": "float32"}, "class_name": "Zeros"}, "moving_variance_initializer": {"config": {"dtype": "float32"}, "class_name": "Ones"}, "dtype": "float32", "scale": true, "beta_initializer": {"config": {"dtype": "float32"}, "class_name": "Zeros"}, "beta_regularizer": null, "gamma_regularizer": null, "momentum": 0.99, "beta_constraint": null, "gamma_constraint": null, "name": "batch_normalization_4", "center": true, "gamma_initializer": {"config": {"dtype": "float32"}, "class_name": "Ones"}, "axis": 1}, "name": "batch_normalization_4", "inbound_nodes": [[["conv2d_4", 0, 0, {}]]], "class_name": "BatchNormalization"}, {"config": {"dtype": "float32", "activation": "relu", "name": "activation_4", "trainable": true}, "name": "activation_4", "inbound_nodes": [[["batch_normalization_4", 0, 0, {}]]], "class_name": "Activation"}, {"config": {"padding": "same", "bias_constraint": null, "use_bias": true, "trainable": true, "kernel_size": [3, 3], "activation": "linear", "dtype": "float32", "kernel_constraint": null, "data_format": "channels_first", "kernel_initializer": {"config": {"dtype": "float32", "seed": null, "mode": "fan_avg", "distribution": "uniform", "scale": 1.0}, "class_name": "VarianceScaling"}, "filters": 32, "kernel_regularizer": {"config": {"l1": 0.0, "l2": 9.999999747378752e-05}, "class_name": "L1L2"}, "name": "conv2d_5", "strides": [1, 1], "bias_regularizer": null, "bias_initializer": {"config": {"dtype": "float32"}, "class_name": "Zeros"}, "dilation_rate": [1, 1], "activity_regularizer": null}, "name": "conv2d_5", "inbound_nodes": [[["activation_4", 0, 0, {}]]], "class_name": "Conv2D"}, {"config": {"trainable": true, "epsilon": 0.001, "moving_mean_initializer": {"config": {"dtype": "float32"}, "class_name": "Zeros"}, "moving_variance_initializer": {"config": {"dtype": "float32"}, "class_name": "Ones"}, "dtype": "float32", "scale": true, "beta_initializer": {"config": {"dtype": "float32"}, "class_name": "Zeros"}, "beta_regularizer": null, "gamma_regularizer": null, "momentum": 0.99, "beta_constraint": null, "gamma_constraint": null, "name": "batch_normalization_5", "center": true, "gamma_initializer": {"config": {"dtype": "float32"}, "class_name": "Ones"}, "axis": 1}, "name": "batch_normalization_5", "inbound_nodes": [[["conv2d_5", 0, 0, {}]]], "class_name": "BatchNormalization"}, {"config": {"dtype": "float32", "name": "add_2", "trainable": true}, "name": "add_2", "inbound_nodes": [[["activation_3", 0, 0, {}], ["batch_normalization_5", 0, 0, {}]]], "class_name": "Add"}, {"config": {"dtype": "float32", "activation": "relu", "name": "activation_5", "trainable": true}, "name": "activation_5", "inbound_nodes": [[["add_2", 0, 0, {}]]], "class_name": "Activation"}, {"config": {"padding": "same", "bias_constraint": null, "use_bias": true, "trainable": true, "kernel_size": [3, 3], "activation": "linear", "dtype": "float32", "kernel_constraint": null, "data_format": "channels_first", "kernel_initializer": {"config": {"dtype": "float32", "seed": null, "mode": "fan_avg", "distribution": "uniform", "scale": 1.0}, "class_name": "VarianceScaling"}, "filters": 32, "kernel_regularizer": {"config": {"l1": 0.0, "l2": 9.999999747378752e-05}, "class_name": "L1L2"}, "name": "conv2d_6", "strides": [1, 1], "bias_regularizer": null, "bias_initializer": {"config": {"dtype": "float32"}, "class_name": "Zeros"}, "dilation_rate": [1, 1], "activity_regularizer": null}, "name": "conv2d_6", "inbound_nodes": [[["activation_5", 0, 0, {}]]], "class_name": "Conv2D"}, {"config": {"trainable": true, "epsilon": 0.001, "moving_mean_initializer": {"config": {"dtype": "float32"}, "class_name": "Zeros"}, "moving_variance_initializer": {"config": {"dtype": "float32"}, "class_name": "Ones"}, "dtype": "float32", "scale": true, "beta_initializer": {"config": {"dtype": "float32"}, "class_name": "Zeros"}, "beta_regularizer": null, "gamma_regularizer": null, "momentum": 0.99, "beta_constraint": null, "gamma_constraint": null, "name": "batch_normalization_6", "center": true, "gamma_initializer": {"config": {"dtype": "float32"}, "class_name": "Ones"}, "axis": 1}, "name": "batch_normalization_6", "inbound_nodes": [[["conv2d_6", 0, 0, {}]]], "class_name": "BatchNormalization"}, {"config": {"dtype": "float32", "activation": "relu", "name": "activation_6", "trainable": true}, "name": "activation_6", "inbound_nodes": [[["batch_normalization_6", 0, 0, {}]]], "class_name": "Activation"}, {"config": {"padding": "same", "bias_constraint": null, "use_bias": true, "trainable": true, "kernel_size": [3, 3], "activation": "linear", "dtype": "float32", "kernel_constraint": null, "data_format": "channels_first", "kernel_initializer": {"config": {"dtype": "float32", "seed": null, "mode": "fan_avg", "distribution": "uniform", "scale": 1.0}, "class_name": "VarianceScaling"}, "filters": 32, "kernel_regularizer": {"config": {"l1": 0.0, "l2": 9.999999747378752e-05}, "class_name": "L1L2"}, "name": "conv2d_7", "strides": [1, 1], "bias_regularizer": null, "bias_initializer": {"config": {"dtype": "float32"}, "class_name": "Zeros"}, "dilation_rate": [1, 1], "activity_regularizer": null}, "name": "conv2d_7", "inbound_nodes": [[["activation_6", 0, 0, {}]]], "class_name": "Conv2D"}, {"config": {"trainable": true, "epsilon": 0.001, "moving_mean_initializer": {"config": {"dtype": "float32"}, "class_name": "Zeros"}, "moving_variance_initializer": {"config": {"dtype": "float32"}, "class_name": "Ones"}, "dtype": "float32", "scale": true, "beta_initializer": {"config": {"dtype": "float32"}, "class_name": "Zeros"}, "beta_regularizer": null, "gamma_regularizer": null, "momentum": 0.99, "beta_constraint": null, "gamma_constraint": null, "name": "batch_normalization_7", "center": true, "gamma_initializer": {"config": {"dtype": "float32"}, "class_name": "Ones"}, "axis": 1}, "name": "batch_normalization_7", "inbound_nodes": [[["conv2d_7", 0, 0, {}]]], "class_name": "BatchNormalization"}, {"config": {"dtype": "float32", "name": "add_3", "trainable": true}, "name": "add_3", "inbound_nodes": [[["activation_5", 0, 0, {}], ["batch_normalization_7", 0, 0, {}]]], "class_name": "Add"}, {"config": {"dtype": "float32", "activation": "relu", "name": "activation_7", "trainable": true}, "name": "activation_7", "inbound_nodes": [[["add_3", 0, 0, {}]]], "class_name": "Activation"}, {"config": {"padding": "same", "bias_constraint": null, "use_bias": true, "trainable": true, "kernel_size": [3, 3], "activation": "linear", "dtype": "float32", "kernel_constraint": null, "data_format": "channels_first", "kernel_initializer": {"config": {"dtype": "float32", "seed": null, "mode": "fan_avg", "distribution": "uniform", "scale": 1.0}, "class_name": "VarianceScaling"}, "filters": 32, "kernel_regularizer": {"config": {"l1": 0.0, "l2": 9.999999747378752e-05}, "class_name": "L1L2"}, "name": "conv2d_8", "strides": [1, 1], "bias_regularizer": null, "bias_initializer": {"config": {"dtype": "float32"}, "class_name": "Zeros"}, "dilation_rate": [1, 1], "activity_regularizer": null}, "name": "conv2d_8", "inbound_nodes": [[["activation_7", 0, 0, {}]]], "class_name": "Conv2D"}, {"config": {"trainable": true, "epsilon": 0.001, "moving_mean_initializer": {"config": {"dtype": "float32"}, "class_name": "Zeros"}, "moving_variance_initializer": {"config": {"dtype": "float32"}, "class_name": "Ones"}, "dtype": "float32", "scale": true, "beta_initializer": {"config": {"dtype": "float32"}, "class_name": "Zeros"}, "beta_regularizer": null, "gamma_regularizer": null, "momentum": 0.99, "beta_constraint": null, "gamma_constraint": null, "name": "batch_normalization_8", "center": true, "gamma_initializer": {"config": {"dtype": "float32"}, "class_name": "Ones"}, "axis": 1}, "name": "batch_normalization_8", "inbound_nodes": [[["conv2d_8", 0, 0, {}]]], "class_name": "BatchNormalization"}, {"config": {"dtype": "float32", "activation": "relu", "name": "activation_8", "trainable": true}, "name": "activation_8", "inbound_nodes": [[["batch_normalization_8", 0, 0, {}]]], "class_name": "Activation"}, {"config": {"padding": "same", "bias_constraint": null, "use_bias": true, "trainable": true, "kernel_size": [3, 3], "activation": "linear", "dtype": "float32", "kernel_constraint": null, "data_format": "channels_first", "kernel_initializer": {"config": {"dtype": "float32", "seed": null, "mode": "fan_avg", "distribution": "uniform", "scale": 1.0}, "class_name": "VarianceScaling"}, "filters": 32, "kernel_regularizer": {"config": {"l1": 0.0, "l2": 9.999999747378752e-05}, "class_name": "L1L2"}, "name": "conv2d_9", "strides": [1, 1], "bias_regularizer": null, "bias_initializer": {"config": {"dtype": "float32"}, "class_name": "Zeros"}, "dilation_rate": [1, 1], "activity_regularizer": null}, "name": "conv2d_9", "inbound_nodes": [[["activation_8", 0, 0, {}]]], "class_name": "Conv2D"}, {"config": {"trainable": true, "epsilon": 0.001, "moving_mean_initializer": {"config": {"dtype": "float32"}, "class_name": "Zeros"}, "moving_variance_initializer": {"config": {"dtype": "float32"}, "class_name": "Ones"}, "dtype": "float32", "scale": true, "beta_initializer": {"config": {"dtype": "float32"}, "class_name": "Zeros"}, "beta_regularizer": null, "gamma_regularizer": null, "momentum": 0.99, "beta_constraint": null, "gamma_constraint": null, "name": "batch_normalization_9", "center": true, "gamma_initializer": {"config": {"dtype": "float32"}, "class_name": "Ones"}, "axis": 1}, "name": "batch_normalization_9", "inbound_nodes": [[["conv2d_9", 0, 0, {}]]], "class_name": "BatchNormalization"}, {"config": {"dtype": "float32", "name": "add_4", "trainable": true}, "name": "add_4", "inbound_nodes": [[["activation_7", 0, 0, {}], ["batch_normalization_9", 0, 0, {}]]], "class_name": "Add"}, {"config": {"dtype": "float32", "activation": "relu", "name": "activation_9", "trainable": true}, "name": "activation_9", "inbound_nodes": [[["add_4", 0, 0, {}]]], "class_name": "Activation"}, {"config": {"padding": "same", "bias_constraint": null, "use_bias": true, "trainable": true, "kernel_size": [3, 3], "activation": "linear", "dtype": "float32", "kernel_constraint": null, "data_format": "channels_first", "kernel_initializer": {"config": {"dtype": "float32", "seed": null, "mode": "fan_avg", "distribution": "uniform", "scale": 1.0}, "class_name": "VarianceScaling"}, "filters": 32, "kernel_regularizer": {"config": {"l1": 0.0, "l2": 9.999999747378752e-05}, "class_name": "L1L2"}, "name": "conv2d_10", "strides": [1, 1], "bias_regularizer": null, "bias_initializer": {"config": {"dtype": "float32"}, "class_name": "Zeros"}, "dilation_rate": [1, 1], "activity_regularizer": null}, "name": "conv2d_10", "inbound_nodes": [[["activation_9", 0, 0, {}]]], "class_name": "Conv2D"}, {"config": {"trainable": true, "epsilon": 0.001, "moving_mean_initializer": {"config": {"dtype": "float32"}, "class_name": "Zeros"}, "moving_variance_initializer": {"config": {"dtype": "float32"}, "class_name": "Ones"}, "dtype": "float32", "scale": true, "beta_initializer": {"config": {"dtype": "float32"}, "class_name": "Zeros"}, "beta_regularizer": null, "gamma_regularizer": null, "momentum": 0.99, "beta_constraint": null, "gamma_constraint": null, "name": "batch_normalization_10", "center": true, "gamma_initializer": {"config": {"dtype": "float32"}, "class_name": "Ones"}, "axis": 1}, "name": "batch_normalization_10", "inbound_nodes": [[["conv2d_10", 0, 0, {}]]], "class_name": "BatchNormalization"}, {"config": {"dtype": "float32", "activation": "relu", "name": "activation_10", "trainable": true}, "name": "activation_10", "inbound_nodes": [[["batch_normalization_10", 0, 0, {}]]], "class_name": "Activation"}, {"config": {"padding": "same", "bias_constraint": null, "use_bias": true, "trainable": true, "kernel_size": [3, 3], "activation": "linear", "dtype": "float32", "kernel_constraint": null, "data_format": "channels_first", "kernel_initializer": {"config": {"dtype": "float32", "seed": null, "mode": "fan_avg", "distribution": "uniform", "scale": 1.0}, "class_name": "VarianceScaling"}, "filters": 32, "kernel_regularizer": {"config": {"l1": 0.0, "l2": 9.999999747378752e-05}, "class_name": "L1L2"}, "name": "conv2d_11", "strides": [1, 1], "bias_regularizer": null, "bias_initializer": {"config": {"dtype": "float32"}, "class_name": "Zeros"}, "dilation_rate": [1, 1], "activity_regularizer": null}, "name": "conv2d_11", "inbound_nodes": [[["activation_10", 0, 0, {}]]], "class_name": "Conv2D"}, {"config": {"trainable": true, "epsilon": 0.001, "moving_mean_initializer": {"config": {"dtype": "float32"}, "class_name": "Zeros"}, "moving_variance_initializer": {"config": {"dtype": "float32"}, "class_name": "Ones"}, "dtype": "float32", "scale": true, "beta_initializer": {"config": {"dtype": "float32"}, "class_name": "Zeros"}, "beta_regularizer": null, "gamma_regularizer": null, "momentum": 0.99, "beta_constraint": null, "gamma_constraint": null, "name": "batch_normalization_11", "center": true, "gamma_initializer": {"config": {"dtype": "float32"}, "class_name": "Ones"}, "axis": 1}, "name": "batch_normalization_11", "inbound_nodes": [[["conv2d_11", 0, 0, {}]]], "class_name": "BatchNormalization"}, {"config": {"dtype": "float32", "name": "add_5", "trainable": true}, "name": "add_5", "inbound_nodes": [[["activation_9", 0, 0, {}], ["batch_normalization_11", 0, 0, {}]]], "class_name": "Add"}, {"config": {"dtype": "float32", "activation": "relu", "name": "activation_11", "trainable": true}, "name": "activation_11", "inbound_nodes": [[["add_5", 0, 0, {}]]], "class_name": "Activation"}, {"config": {"padding": "same", "bias_constraint": null, "use_bias": true, "trainable": true, "kernel_size": [3, 3], "activation": "linear", "dtype": "float32", "kernel_constraint": null, "data_format": "channels_first", "kernel_initializer": {"config": {"dtype": "float32", "seed": null, "mode": "fan_avg", "distribution": "uniform", "scale": 1.0}, "class_name": "VarianceScaling"}, "filters": 32, "kernel_regularizer": {"config": {"l1": 0.0, "l2": 9.999999747378752e-05}, "class_name": "L1L2"}, "name": "conv2d_12", "strides": [1, 1], "bias_regularizer": null, "bias_initializer": {"config": {"dtype": "float32"}, "class_name": "Zeros"}, "dilation_rate": [1, 1], "activity_regularizer": null}, "name": "conv2d_12", "inbound_nodes": [[["activation_11", 0, 0, {}]]], "class_name": "Conv2D"}, {"config": {"trainable": true, "epsilon": 0.001, "moving_mean_initializer": {"config": {"dtype": "float32"}, "class_name": "Zeros"}, "moving_variance_initializer": {"config": {"dtype": "float32"}, "class_name": "Ones"}, "dtype": "float32", "scale": true, "beta_initializer": {"config": {"dtype": "float32"}, "class_name": "Zeros"}, "beta_regularizer": null, "gamma_regularizer": null, "momentum": 0.99, "beta_constraint": null, "gamma_constraint": null, "name": "batch_normalization_12", "center": true, "gamma_initializer": {"config": {"dtype": "float32"}, "class_name": "Ones"}, "axis": 1}, "name": "batch_normalization_12", "inbound_nodes": [[["conv2d_12", 0, 0, {}]]], "class_name": "BatchNormalization"}, {"config": {"dtype": "float32", "activation": "relu", "name": "activation_12", "trainable": true}, "name": "activation_12", "inbound_nodes": [[["batch_normalization_12", 0, 0, {}]]], "class_name": "Activation"}, {"config": {"padding": "same", "bias_constraint": null, "use_bias": true, "trainable": true, "kernel_size": [3, 3], "activation": "linear", "dtype": "float32", "kernel_constraint": null, "data_format": "channels_first", "kernel_initializer": {"config": {"dtype": "float32", "seed": null, "mode": "fan_avg", "distribution": "uniform", "scale": 1.0}, "class_name": "VarianceScaling"}, "filters": 32, "kernel_regularizer": {"config": {"l1": 0.0, "l2": 9.999999747378752e-05}, "class_name": "L1L2"}, "name": "conv2d_13", "strides": [1, 1], "bias_regularizer": null, "bias_initializer": {"config": {"dtype": "float32"}, "class_name": "Zeros"}, "dilation_rate": [1, 1], "activity_regularizer": null}, "name": "conv2d_13", "inbound_nodes": [[["activation_12", 0, 0, {}]]], "class_name": "Conv2D"}, {"config": {"trainable": true, "epsilon": 0.001, "moving_mean_initializer": {"config": {"dtype": "float32"}, "class_name": "Zeros"}, "moving_variance_initializer": {"config": {"dtype": "float32"}, "class_name": "Ones"}, "dtype": "float32", "scale": true, "beta_initializer": {"config": {"dtype": "float32"}, "class_name": "Zeros"}, "beta_regularizer": null, "gamma_regularizer": null, "momentum": 0.99, "beta_constraint": null, "gamma_constraint": null, "name": "batch_normalization_13", "center": true, "gamma_initializer": {"config": {"dtype": "float32"}, "class_name": "Ones"}, "axis": 1}, "name": "batch_normalization_13", "inbound_nodes": [[["conv2d_13", 0, 0, {}]]], "class_name": "BatchNormalization"}, {"config": {"dtype": "float32", "name": "add_6", "trainable": true}, "name": "add_6", "inbound_nodes": [[["activation_11", 0, 0, {}], ["batch_normalization_13", 0, 0, {}]]], "class_name": "Add"}, {"config": {"dtype": "float32", "activation": "relu", "name": "activation_13", "trainable": true}, "name": "activation_13", "inbound_nodes": [[["add_6", 0, 0, {}]]], "class_name": "Activation"}, {"config": {"padding": "same", "bias_constraint": null, "use_bias": true, "trainable": true, "kernel_size": [3, 3], "activation": "linear", "dtype": "float32", "kernel_constraint": null, "data_format": "channels_first", "kernel_initializer": {"config": {"dtype": "float32", "seed": null, "mode": "fan_avg", "distribution": "uniform", "scale": 1.0}, "class_name": "VarianceScaling"}, "filters": 32, "kernel_regularizer": {"config": {"l1": 0.0, "l2": 9.999999747378752e-05}, "class_name": "L1L2"}, "name": "conv2d_14", "strides": [1, 1], "bias_regularizer": null, "bias_initializer": {"config": {"dtype": "float32"}, "class_name": "Zeros"}, "dilation_rate": [1, 1], "activity_regularizer": null}, "name": "conv2d_14", "inbound_nodes": [[["activation_13", 0, 0, {}]]], "class_name": "Conv2D"}, {"config": {"trainable": true, "epsilon": 0.001, "moving_mean_initializer": {"config": {"dtype": "float32"}, "class_name": "Zeros"}, "moving_variance_initializer": {"config": {"dtype": "float32"}, "class_name": "Ones"}, "dtype": "float32", "scale": true, "beta_initializer": {"config": {"dtype": "float32"}, "class_name": "Zeros"}, "beta_regularizer": null, "gamma_regularizer": null, "momentum": 0.99, "beta_constraint": null, "gamma_constraint": null, "name": "batch_normalization_14", "center": true, "gamma_initializer": {"config": {"dtype": "float32"}, "class_name": "Ones"}, "axis": 1}, "name": "batch_normalization_14", "inbound_nodes": [[["conv2d_14", 0, 0, {}]]], "class_name": "BatchNormalization"}, {"config": {"dtype": "float32", "activation": "relu", "name": "activation_14", "trainable": true}, "name": "activation_14", "inbound_nodes": [[["batch_normalization_14", 0, 0, {}]]], "class_name": "Activation"}, {"config": {"padding": "same", "bias_constraint": null, "use_bias": true, "trainable": true, "kernel_size": [3, 3], "activation": "linear", "dtype": "float32", "kernel_constraint": null, "data_format": "channels_first", "kernel_initializer": {"config": {"dtype": "float32", "seed": null, "mode": "fan_avg", "distribution": "uniform", "scale": 1.0}, "class_name": "VarianceScaling"}, "filters": 32, "kernel_regularizer": {"config": {"l1": 0.0, "l2": 9.999999747378752e-05}, "class_name": "L1L2"}, "name": "conv2d_15", "strides": [1, 1], "bias_regularizer": null, "bias_initializer": {"config": {"dtype": "float32"}, "class_name": "Zeros"}, "dilation_rate": [1, 1], "activity_regularizer": null}, "name": "conv2d_15", "inbound_nodes": [[["activation_14", 0, 0, {}]]], "class_name": "Conv2D"}, {"config": {"trainable": true, "epsilon": 0.001, "moving_mean_initializer": {"config": {"dtype": "float32"}, "class_name": "Zeros"}, "moving_variance_initializer": {"config": {"dtype": "float32"}, "class_name": "Ones"}, "dtype": "float32", "scale": true, "beta_initializer": {"config": {"dtype": "float32"}, "class_name": "Zeros"}, "beta_regularizer": null, "gamma_regularizer": null, "momentum": 0.99, "beta_constraint": null, "gamma_constraint": null, "name": "batch_normalization_15", "center": true, "gamma_initializer": {"config": {"dtype": "float32"}, "class_name": "Ones"}, "axis": 1}, "name": "batch_normalization_15", "inbound_nodes": [[["conv2d_15", 0, 0, {}]]], "class_name": "BatchNormalization"}, {"config": {"dtype": "float32", "name": "add_7", "trainable": true}, "name": "add_7", "inbound_nodes": [[["activation_13", 0, 0, {}], ["batch_normalization_15", 0, 0, {}]]], "class_name": "Add"}, {"config": {"dtype": "float32", "activation": "relu", "name": "activation_15", "trainable": true}, "name": "activation_15", "inbound_nodes": [[["add_7", 0, 0, {}]]], "class_name": "Activation"}, {"config": {"padding": "same", "bias_constraint": null, "use_bias": true, "trainable": true, "kernel_size": [3, 3], "activation": "linear", "dtype": "float32", "kernel_constraint": null, "data_format": "channels_first", "kernel_initializer": {"config": {"dtype": "float32", "seed": null, "mode": "fan_avg", "distribution": "uniform", "scale": 1.0}, "class_name": "VarianceScaling"}, "filters": 32, "kernel_regularizer": {"config": {"l1": 0.0, "l2": 9.999999747378752e-05}, "class_name": "L1L2"}, "name": "conv2d_16", "strides": [1, 1], "bias_regularizer": null, "bias_initializer": {"config": {"dtype": "float32"}, "class_name": "Zeros"}, "dilation_rate": [1, 1], "activity_regularizer": null}, "name": "conv2d_16", "inbound_nodes": [[["activation_15", 0, 0, {}]]], "class_name": "Conv2D"}, {"config": {"trainable": true, "epsilon": 0.001, "moving_mean_initializer": {"config": {"dtype": "float32"}, "class_name": "Zeros"}, "moving_variance_initializer": {"config": {"dtype": "float32"}, "class_name": "Ones"}, "dtype": "float32", "scale": true, "beta_initializer": {"config": {"dtype": "float32"}, "class_name": "Zeros"}, "beta_regularizer": null, "gamma_regularizer": null, "momentum": 0.99, "beta_constraint": null, "gamma_constraint": null, "name": "batch_normalization_16", "center": true, "gamma_initializer": {"config": {"dtype": "float32"}, "class_name": "Ones"}, "axis": 1}, "name": "batch_normalization_16", "inbound_nodes": [[["conv2d_16", 0, 0, {}]]], "class_name": "BatchNormalization"}, {"config": {"dtype": "float32", "activation": "relu", "name": "activation_16", "trainable": true}, "name": "activation_16", "inbound_nodes": [[["batch_normalization_16", 0, 0, {}]]], "class_name": "Activation"}, {"config": {"padding": "same", "bias_constraint": null, "use_bias": true, "trainable": true, "kernel_size": [3, 3], "activation": "linear", "dtype": "float32", "kernel_constraint": null, "data_format": "channels_first", "kernel_initializer": {"config": {"dtype": "float32", "seed": null, "mode": "fan_avg", "distribution": "uniform", "scale": 1.0}, "class_name": "VarianceScaling"}, "filters": 32, "kernel_regularizer": {"config": {"l1": 0.0, "l2": 9.999999747378752e-05}, "class_name": "L1L2"}, "name": "conv2d_17", "strides": [1, 1], "bias_regularizer": null, "bias_initializer": {"config": {"dtype": "float32"}, "class_name": "Zeros"}, "dilation_rate": [1, 1], "activity_regularizer": null}, "name": "conv2d_17", "inbound_nodes": [[["activation_16", 0, 0, {}]]], "class_name": "Conv2D"}, {"config": {"trainable": true, "epsilon": 0.001, "moving_mean_initializer": {"config": {"dtype": "float32"}, "class_name": "Zeros"}, "moving_variance_initializer": {"config": {"dtype": "float32"}, "class_name": "Ones"}, "dtype": "float32", "scale": true, "beta_initializer": {"config": {"dtype": "float32"}, "class_name": "Zeros"}, "beta_regularizer": null, "gamma_regularizer": null, "momentum": 0.99, "beta_constraint": null, "gamma_constraint": null, "name": "batch_normalization_17", "center": true, "gamma_initializer": {"config": {"dtype": "float32"}, "class_name": "Ones"}, "axis": 1}, "name": "batch_normalization_17", "inbound_nodes": [[["conv2d_17", 0, 0, {}]]], "class_name": "BatchNormalization"}, {"config": {"dtype": "float32", "name": "add_8", "trainable": true}, "name": "add_8", "inbound_nodes": [[["activation_15", 0, 0, {}], ["batch_normalization_17", 0, 0, {}]]], "class_name": "Add"}, {"config": {"dtype": "float32", "activation": "relu", "name": "activation_17", "trainable": true}, "name": "activation_17", "inbound_nodes": [[["add_8", 0, 0, {}]]], "class_name": "Activation"}, {"config": {"padding": "same", "bias_constraint": null, "use_bias": true, "trainable": true, "kernel_size": [3, 3], "activation": "linear", "dtype": "float32", "kernel_constraint": null, "data_format": "channels_first", "kernel_initializer": {"config": {"dtype": "float32", "seed": null, "mode": "fan_avg", "distribution": "uniform", "scale": 1.0}, "class_name": "VarianceScaling"}, "filters": 32, "kernel_regularizer": {"config": {"l1": 0.0, "l2": 9.999999747378752e-05}, "class_name": "L1L2"}, "name": "conv2d_18", "strides": [1, 1], "bias_regularizer": null, "bias_initializer": {"config": {"dtype": "float32"}, "class_name": "Zeros"}, "dilation_rate": [1, 1], "activity_regularizer": null}, "name": "conv2d_18", "inbound_nodes": [[["activation_17", 0, 0, {}]]], "class_name": "Conv2D"}, {"config": {"trainable": true, "epsilon": 0.001, "moving_mean_initializer": {"config": {"dtype": "float32"}, "class_name": "Zeros"}, "moving_variance_initializer": {"config": {"dtype": "float32"}, "class_name": "Ones"}, "dtype": "float32", "scale": true, "beta_initializer": {"config": {"dtype": "float32"}, "class_name": "Zeros"}, "beta_regularizer": null, "gamma_regularizer": null, "momentum": 0.99, "beta_constraint": null, "gamma_constraint": null, "name": "batch_normalization_18", "center": true, "gamma_initializer": {"config": {"dtype": "float32"}, "class_name": "Ones"}, "axis": 1}, "name": "batch_normalization_18", "inbound_nodes": [[["conv2d_18", 0, 0, {}]]], "class_name": "BatchNormalization"}, {"config": {"dtype": "float32", "activation": "relu", "name": "activation_18", "trainable": true}, "name": "activation_18", "inbound_nodes": [[["batch_normalization_18", 0, 0, {}]]], "class_name": "Activation"}, {"config": {"padding": "same", "bias_constraint": null, "use_bias": true, "trainable": true, "kernel_size": [3, 3], "activation": "linear", "dtype": "float32", "kernel_constraint": null, "data_format": "channels_first", "kernel_initializer": {"config": {"dtype": "float32", "seed": null, "mode": "fan_avg", "distribution": "uniform", "scale": 1.0}, "class_name": "VarianceScaling"}, "filters": 32, "kernel_regularizer": {"config": {"l1": 0.0, "l2": 9.999999747378752e-05}, "class_name": "L1L2"}, "name": "conv2d_19", "strides": [1, 1], "bias_regularizer": null, "bias_initializer": {"config": {"dtype": "float32"}, "class_name": "Zeros"}, "dilation_rate": [1, 1], "activity_regularizer": null}, "name": "conv2d_19", "inbound_nodes": [[["activation_18", 0, 0, {}]]], "class_name": "Conv2D"}, {"config": {"trainable": true, "epsilon": 0.001, "moving_mean_initializer": {"config": {"dtype": "float32"}, "class_name": "Zeros"}, "moving_variance_initializer": {"config": {"dtype": "float32"}, "class_name": "Ones"}, "dtype": "float32", "scale": true, "beta_initializer": {"config": {"dtype": "float32"}, "class_name": "Zeros"}, "beta_regularizer": null, "gamma_regularizer": null, "momentum": 0.99, "beta_constraint": null, "gamma_constraint": null, "name": "batch_normalization_19", "center": true, "gamma_initializer": {"config": {"dtype": "float32"}, "class_name": "Ones"}, "axis": 1}, "name": "batch_normalization_19", "inbound_nodes": [[["conv2d_19", 0, 0, {}]]], "class_name": "BatchNormalization"}, {"config": {"dtype": "float32", "name": "add_9", "trainable": true}, "name": "add_9", "inbound_nodes": [[["activation_17", 0, 0, {}], ["batch_normalization_19", 0, 0, {}]]], "class_name": "Add"}, {"config": {"dtype": "float32", "activation": "relu", "name": "activation_19", "trainable": true}, "name": "activation_19", "inbound_nodes": [[["add_9", 0, 0, {}]]], "class_name": "Activation"}, {"config": {"padding": "same", "bias_constraint": null, "use_bias": true, "trainable": true, "kernel_size": [3, 3], "activation": "linear", "dtype": "float32", "kernel_constraint": null, "data_format": "channels_first", "kernel_initializer": {"config": {"dtype": "float32", "seed": null, "mode": "fan_avg", "distribution": "uniform", "scale": 1.0}, "class_name": "VarianceScaling"}, "filters": 32, "kernel_regularizer": {"config": {"l1": 0.0, "l2": 9.999999747378752e-05}, "class_name": "L1L2"}, "name": "conv2d_20", "strides": [1, 1], "bias_regularizer": null, "bias_initializer": {"config": {"dtype": "float32"}, "class_name": "Zeros"}, "dilation_rate": [1, 1], "activity_regularizer": null}, "name": "conv2d_20", "inbound_nodes": [[["activation_19", 0, 0, {}]]], "class_name": "Conv2D"}, {"config": {"trainable": true, "epsilon": 0.001, "moving_mean_initializer": {"config": {"dtype": "float32"}, "class_name": "Zeros"}, "moving_variance_initializer": {"config": {"dtype": "float32"}, "class_name": "Ones"}, "dtype": "float32", "scale": true, "beta_initializer": {"config": {"dtype": "float32"}, "class_name": "Zeros"}, "beta_regularizer": null, "gamma_regularizer": null, "momentum": 0.99, "beta_constraint": null, "gamma_constraint": null, "name": "batch_normalization_20", "center": true, "gamma_initializer": {"config": {"dtype": "float32"}, "class_name": "Ones"}, "axis": 1}, "name": "batch_normalization_20", "inbound_nodes": [[["conv2d_20", 0, 0, {}]]], "class_name": "BatchNormalization"}, {"config": {"dtype": "float32", "activation": "relu", "name": "activation_20", "trainable": true}, "name": "activation_20", "inbound_nodes": [[["batch_normalization_20", 0, 0, {}]]], "class_name": "Activation"}, {"config": {"padding": "same", "bias_constraint": null, "use_bias": true, "trainable": true, "kernel_size": [3, 3], "activation": "linear", "dtype": "float32", "kernel_constraint": null, "data_format": "channels_first", "kernel_initializer": {"config": {"dtype": "float32", "seed": null, "mode": "fan_avg", "distribution": "uniform", "scale": 1.0}, "class_name": "VarianceScaling"}, "filters": 32, "kernel_regularizer": {"config": {"l1": 0.0, "l2": 9.999999747378752e-05}, "class_name": "L1L2"}, "name": "conv2d_21", "strides": [1, 1], "bias_regularizer": null, "bias_initializer": {"config": {"dtype": "float32"}, "class_name": "Zeros"}, "dilation_rate": [1, 1], "activity_regularizer": null}, "name": "conv2d_21", "inbound_nodes": [[["activation_20", 0, 0, {}]]], "class_name": "Conv2D"}, {"config": {"trainable": true, "epsilon": 0.001, "moving_mean_initializer": {"config": {"dtype": "float32"}, "class_name": "Zeros"}, "moving_variance_initializer": {"config": {"dtype": "float32"}, "class_name": "Ones"}, "dtype": "float32", "scale": true, "beta_initializer": {"config": {"dtype": "float32"}, "class_name": "Zeros"}, "beta_regularizer": null, "gamma_regularizer": null, "momentum": 0.99, "beta_constraint": null, "gamma_constraint": null, "name": "batch_normalization_21", "center": true, "gamma_initializer": {"config": {"dtype": "float32"}, "class_name": "Ones"}, "axis": 1}, "name": "batch_normalization_21", "inbound_nodes": [[["conv2d_21", 0, 0, {}]]], "class_name": "BatchNormalization"}, {"config": {"dtype": "float32", "name": "add_10", "trainable": true}, "name": "add_10", "inbound_nodes": [[["activation_19", 0, 0, {}], ["batch_normalization_21", 0, 0, {}]]], "class_name": "Add"}, {"config": {"dtype": "float32", "activation": "relu", "name": "activation_21", "trainable": true}, "name": "activation_21", "inbound_nodes": [[["add_10", 0, 0, {}]]], "class_name": "Activation"}, {"config": {"padding": "valid", "bias_constraint": null, "use_bias": true, "trainable": true, "kernel_size": [1, 1], "activation": "linear", "dtype": "float32", "kernel_constraint": null, "data_format": "channels_first", "kernel_initializer": {"config": {"dtype": "float32", "seed": null, "mode": "fan_avg", "distribution": "uniform", "scale": 1.0}, "class_name": "VarianceScaling"}, "filters": 4, "kernel_regularizer": {"config": {"l1": 0.0, "l2": 9.999999747378752e-05}, "class_name": "L1L2"}, "name": "conv2d_23", "strides": [1, 1], "bias_regularizer": null, "bias_initializer": {"config": {"dtype": "float32"}, "class_name": "Zeros"}, "dilation_rate": [1, 1], "activity_regularizer": null}, "name": "conv2d_23", "inbound_nodes": [[["activation_21", 0, 0, {}]]], "class_name": "Conv2D"}, {"config": {"trainable": true, "epsilon": 0.001, "moving_mean_initializer": {"config": {"dtype": "float32"}, "class_name": "Zeros"}, "moving_variance_initializer": {"config": {"dtype": "float32"}, "class_name": "Ones"}, "dtype": "float32", "scale": true, "beta_initializer": {"config": {"dtype": "float32"}, "class_name": "Zeros"}, "beta_regularizer": null, "gamma_regularizer": null, "momentum": 0.99, "beta_constraint": null, "gamma_constraint": null, "name": "batch_normalization_23", "center": true, "gamma_initializer": {"config": {"dtype": "float32"}, "class_name": "Ones"}, "axis": 1}, "name": "batch_normalization_23", "inbound_nodes": [[["conv2d_23", 0, 0, {}]]], "class_name": "BatchNormalization"}, {"config": {"dtype": "float32", "activation": "relu", "name": "activation_23", "trainable": true}, "name": "activation_23", "inbound_nodes": [[["batch_normalization_23", 0, 0, {}]]], "class_name": "Activation"}, {"config": {"padding": "valid", "bias_constraint": null, "use_bias": true, "trainable": true, "kernel_size": [1, 1], "activation": "linear", "dtype": "float32", "kernel_constraint": null, "data_format": "channels_first", "kernel_initializer": {"config": {"dtype": "float32", "seed": null, "mode": "fan_avg", "distribution": "uniform", "scale": 1.0}, "class_name": "VarianceScaling"}, "filters": 4, "kernel_regularizer": {"config": {"l1": 0.0, "l2": 9.999999747378752e-05}, "class_name": "L1L2"}, "name": "conv2d_22", "strides": [1, 1], "bias_regularizer": null, "bias_initializer": {"config": {"dtype": "float32"}, "class_name": "Zeros"}, "dilation_rate": [1, 1], "activity_regularizer": null}, "name": "conv2d_22", "inbound_nodes": [[["activation_21", 0, 0, {}]]], "class_name": "Conv2D"}, {"config": {"dtype": "float32", "name": "flatten_2", "trainable": true}, "name": "flatten_2", "inbound_nodes": [[["activation_23", 0, 0, {}]]], "class_name": "Flatten"}, {"config": {"trainable": true, "epsilon": 0.001, "moving_mean_initializer": {"config": {"dtype": "float32"}, "class_name": "Zeros"}, "moving_variance_initializer": {"config": {"dtype": "float32"}, "class_name": "Ones"}, "dtype": "float32", "scale": true, "beta_initializer": {"config": {"dtype": "float32"}, "class_name": "Zeros"}, "beta_regularizer": null, "gamma_regularizer": null, "momentum": 0.99, "beta_constraint": null, "gamma_constraint": null, "name": "batch_normalization_22", "center": true, "gamma_initializer": {"config": {"dtype": "float32"}, "class_name": "Ones"}, "axis": 1}, "name": "batch_normalization_22", "inbound_nodes": [[["conv2d_22", 0, 0, {}]]], "class_name": "BatchNormalization"}, {"config": {"use_bias": true, "bias_constraint": null, "units": 128, "trainable": true, "activation": "linear", "dtype": "float32", "kernel_constraint": null, "kernel_initializer": {"config": {"dtype": "float32", "seed": null, "mode": "fan_avg", "distribution": "uniform", "scale": 1.0}, "class_name": "VarianceScaling"}, "kernel_regularizer": {"config": {"l1": 0.0, "l2": 9.999999747378752e-05}, "class_name": "L1L2"}, "name": "dense_1", "bias_regularizer": null, "bias_initializer": {"config": {"dtype": "float32"}, "class_name": "Zeros"}, "activity_regularizer": null}, "name": "dense_1", "inbound_nodes": [[["flatten_2", 0, 0, {}]]], "class_name": "Dense"}, {"config": {"dtype": "float32", "activation": "relu", "name": "activation_22", "trainable": true}, "name": "activation_22", "inbound_nodes": [[["batch_normalization_22", 0, 0, {}]]], "class_name": "Activation"}, {"config": {"trainable": true, "epsilon": 0.001, "moving_mean_initializer": {"config": {"dtype": "float32"}, "class_name": "Zeros"}, "moving_variance_initializer": {"config": {"dtype": "float32"}, "class_name": "Ones"}, "dtype": "float32", "scale": true, "beta_initializer": {"config": {"dtype": "float32"}, "class_name": "Zeros"}, "beta_regularizer": null, "gamma_regularizer": null, "momentum": 0.99, "beta_constraint": null, "gamma_constraint": null, "name": "batch_normalization_24", "center": true, "gamma_initializer": {"config": {"dtype": "float32"}, "class_name": "Ones"}, "axis": 1}, "name": "batch_normalization_24", "inbound_nodes": [[["dense_1", 0, 0, {}]]], "class_name": "BatchNormalization"}, {"config": {"dtype": "float32", "name": "flatten_1", "trainable": true}, "name": "flatten_1", "inbound_nodes": [[["activation_22", 0, 0, {}]]], "class_name": "Flatten"}, {"config": {"dtype": "float32", "activation": "relu", "name": "activation_24", "trainable": true}, "name": "activation_24", "inbound_nodes": [[["batch_normalization_24", 0, 0, {}]]], "class_name": "Activation"}, {"config": {"use_bias": true, "bias_constraint": null, "units": 7, "trainable": true, "activation": "softmax", "dtype": "float32", "kernel_constraint": null, "kernel_initializer": {"config": {"dtype": "float32", "seed": null, "mode": "fan_avg", "distribution": "uniform", "scale": 1.0}, "class_name": "VarianceScaling"}, "kernel_regularizer": {"config": {"l1": 0.0, "l2": 9.999999747378752e-05}, "class_name": "L1L2"}, "name": "policy_out", "bias_regularizer": null, "bias_initializer": {"config": {"dtype": "float32"}, "class_name": "Zeros"}, "activity_regularizer": null}, "name": "policy_out", "inbound_nodes": [[["flatten_1", 0, 0, {}]]], "class_name": "Dense"}, {"config": {"use_bias": true, "bias_constraint": null, "units": 1, "trainable": true, "activation": "tanh", "dtype": "float32", "kernel_constraint": null, "kernel_initializer": {"config": {"dtype": "float32", "seed": null, "mode": "fan_avg", "distribution": "uniform", "scale": 1.0}, "class_name": "VarianceScaling"}, "kernel_regularizer": {"config": {"l1": 0.0, "l2": 9.999999747378752e-05}, "class_name": "L1L2"}, "name": "value_out", "bias_regularizer": null, "bias_initializer": {"config": {"dtype": "float32"}, "class_name": "Zeros"}, "activity_regularizer": null}, "name": "value_out", "inbound_nodes": [[["activation_24", 0, 0, {}]]], "class_name": "Dense"}], "output_layers": [["policy_out", 0, 0], ["value_out", 0, 0]], "name": "c4_model", "input_layers": [["input_1", 0, 0]]}, "class_name": "Model"}, "training_config": {"loss": ["categorical_crossentropy", "mean_squared_error"], "optimizer_config": {"config": {"momentum": 0.8999999761581421, "decay": 0.0, "nesterov": false, "lr": 0.17880000174045563}, "class_name": "SGD"}, "metrics": null, "sample_weight_mode": null, "loss_weights": null}}}