{"modelTopology": {"keras_version": "2.0.8-tf", "backend": "tensorflow", "training_config": {"sample_weight_mode": null, "loss": ["categorical_crossentropy", "mean_squared_error"], "metrics": null, "loss_weights": null, "optimizer_config": {"config": {"nesterov": false, "decay": 0.0, "momentum": 0.8999999761581421, "lr": 0.0006249999860301614}, "class_name": "SGD"}}, "model_config": {"config": {"name": "c4_model", "output_layers": [["policy_out", 0, 0], ["value_out", 0, 0]], "input_layers": [["input_1", 0, 0]], "layers": [{"name": "input_1", "inbound_nodes": [], "config": {"name": "input_1", "sparse": false, "dtype": "float32", "batch_input_shape": [null, 2, 6, 7]}, "class_name": "InputLayer"}, {"name": "conv2d_1", "inbound_nodes": [[["input_1", 0, 0, {}]]], "config": {"padding": "same", "bias_constraint": null, "kernel_initializer": {"config": {"mode": "fan_avg", "scale": 1.0, "dtype": "float32", "distribution": "uniform", "seed": null}, "class_name": "VarianceScaling"}, "trainable": true, "data_format": "channels_first", "kernel_constraint": null, "activity_regularizer": null, "bias_regularizer": null, "dilation_rate": [1, 1], "name": "conv2d_1", "use_bias": true, "bias_initializer": {"config": {"dtype": "float32"}, "class_name": "Zeros"}, "kernel_regularizer": {"config": {"l1": 0.0, "l2": 9.999999747378752e-05}, "class_name": "L1L2"}, "strides": [1, 1], "dtype": "float32", "filters": 128, "kernel_size": [3, 3], "activation": "linear"}, "class_name": "Conv2D"}, {"name": "batch_normalization_1", "inbound_nodes": [[["conv2d_1", 0, 0, {}]]], "config": {"beta_constraint": null, "axis": 1, "scale": true, "moving_variance_initializer": {"config": {"dtype": "float32"}, "class_name": "Ones"}, "trainable": true, "beta_regularizer": null, "beta_initializer": {"config": {"dtype": "float32"}, "class_name": "Zeros"}, "gamma_constraint": null, "moving_mean_initializer": {"config": {"dtype": "float32"}, "class_name": "Zeros"}, "name": "batch_normalization_1", "gamma_regularizer": null, "center": true, "gamma_initializer": {"config": {"dtype": "float32"}, "class_name": "Ones"}, "dtype": "float32", "epsilon": 0.001, "momentum": 0.99}, "class_name": "BatchNormalization"}, {"name": "activation_1", "inbound_nodes": [[["batch_normalization_1", 0, 0, {}]]], "config": {"name": "activation_1", "dtype": "float32", "trainable": true, "activation": "relu"}, "class_name": "Activation"}, {"name": "conv2d_2", "inbound_nodes": [[["activation_1", 0, 0, {}]]], "config": {"padding": "same", "bias_constraint": null, "kernel_initializer": {"config": {"mode": "fan_avg", "scale": 1.0, "dtype": "float32", "distribution": "uniform", "seed": null}, "class_name": "VarianceScaling"}, "trainable": true, "data_format": "channels_first", "kernel_constraint": null, "activity_regularizer": null, "bias_regularizer": null, "dilation_rate": [1, 1], "name": "conv2d_2", "use_bias": true, "bias_initializer": {"config": {"dtype": "float32"}, "class_name": "Zeros"}, "kernel_regularizer": {"config": {"l1": 0.0, "l2": 9.999999747378752e-05}, "class_name": "L1L2"}, "strides": [1, 1], "dtype": "float32", "filters": 128, "kernel_size": [3, 3], "activation": "linear"}, "class_name": "Conv2D"}, {"name": "batch_normalization_2", "inbound_nodes": [[["conv2d_2", 0, 0, {}]]], "config": {"beta_constraint": null, "axis": 1, "scale": true, "moving_variance_initializer": {"config": {"dtype": "float32"}, "class_name": "Ones"}, "trainable": true, "beta_regularizer": null, "beta_initializer": {"config": {"dtype": "float32"}, "class_name": "Zeros"}, "gamma_constraint": null, "moving_mean_initializer": {"config": {"dtype": "float32"}, "class_name": "Zeros"}, "name": "batch_normalization_2", "gamma_regularizer": null, "center": true, "gamma_initializer": {"config": {"dtype": "float32"}, "class_name": "Ones"}, "dtype": "float32", "epsilon": 0.001, "momentum": 0.99}, "class_name": "BatchNormalization"}, {"name": "activation_2", "inbound_nodes": [[["batch_normalization_2", 0, 0, {}]]], "config": {"name": "activation_2", "dtype": "float32", "trainable": true, "activation": "relu"}, "class_name": "Activation"}, {"name": "conv2d_3", "inbound_nodes": [[["activation_2", 0, 0, {}]]], "config": {"padding": "same", "bias_constraint": null, "kernel_initializer": {"config": {"mode": "fan_avg", "scale": 1.0, "dtype": "float32", "distribution": "uniform", "seed": null}, "class_name": "VarianceScaling"}, "trainable": true, "data_format": "channels_first", "kernel_constraint": null, "activity_regularizer": null, "bias_regularizer": null, "dilation_rate": [1, 1], "name": "conv2d_3", "use_bias": true, "bias_initializer": {"config": {"dtype": "float32"}, "class_name": "Zeros"}, "kernel_regularizer": {"config": {"l1": 0.0, "l2": 9.999999747378752e-05}, "class_name": "L1L2"}, "strides": [1, 1], "dtype": "float32", "filters": 128, "kernel_size": [3, 3], "activation": "linear"}, "class_name": "Conv2D"}, {"name": "batch_normalization_3", "inbound_nodes": [[["conv2d_3", 0, 0, {}]]], "config": {"beta_constraint": null, "axis": 1, "scale": true, "moving_variance_initializer": {"config": {"dtype": "float32"}, "class_name": "Ones"}, "trainable": true, "beta_regularizer": null, "beta_initializer": {"config": {"dtype": "float32"}, "class_name": "Zeros"}, "gamma_constraint": null, "moving_mean_initializer": {"config": {"dtype": "float32"}, "class_name": "Zeros"}, "name": "batch_normalization_3", "gamma_regularizer": null, "center": true, "gamma_initializer": {"config": {"dtype": "float32"}, "class_name": "Ones"}, "dtype": "float32", "epsilon": 0.001, "momentum": 0.99}, "class_name": "BatchNormalization"}, {"name": "add_1", "inbound_nodes": [[["activation_1", 0, 0, {}], ["batch_normalization_3", 0, 0, {}]]], "config": {"name": "add_1", "dtype": "float32", "trainable": true}, "class_name": "Add"}, {"name": "activation_3", "inbound_nodes": [[["add_1", 0, 0, {}]]], "config": {"name": "activation_3", "dtype": "float32", "trainable": true, "activation": "relu"}, "class_name": "Activation"}, {"name": "conv2d_4", "inbound_nodes": [[["activation_3", 0, 0, {}]]], "config": {"padding": "same", "bias_constraint": null, "kernel_initializer": {"config": {"mode": "fan_avg", "scale": 1.0, "dtype": "float32", "distribution": "uniform", "seed": null}, "class_name": "VarianceScaling"}, "trainable": true, "data_format": "channels_first", "kernel_constraint": null, "activity_regularizer": null, "bias_regularizer": null, "dilation_rate": [1, 1], "name": "conv2d_4", "use_bias": true, "bias_initializer": {"config": {"dtype": "float32"}, "class_name": "Zeros"}, "kernel_regularizer": {"config": {"l1": 0.0, "l2": 9.999999747378752e-05}, "class_name": "L1L2"}, "strides": [1, 1], "dtype": "float32", "filters": 128, "kernel_size": [3, 3], "activation": "linear"}, "class_name": "Conv2D"}, {"name": "batch_normalization_4", "inbound_nodes": [[["conv2d_4", 0, 0, {}]]], "config": {"beta_constraint": null, "axis": 1, "scale": true, "moving_variance_initializer": {"config": {"dtype": "float32"}, "class_name": "Ones"}, "trainable": true, "beta_regularizer": null, "beta_initializer": {"config": {"dtype": "float32"}, "class_name": "Zeros"}, "gamma_constraint": null, "moving_mean_initializer": {"config": {"dtype": "float32"}, "class_name": "Zeros"}, "name": "batch_normalization_4", "gamma_regularizer": null, "center": true, "gamma_initializer": {"config": {"dtype": "float32"}, "class_name": "Ones"}, "dtype": "float32", "epsilon": 0.001, "momentum": 0.99}, "class_name": "BatchNormalization"}, {"name": "activation_4", "inbound_nodes": [[["batch_normalization_4", 0, 0, {}]]], "config": {"name": "activation_4", "dtype": "float32", "trainable": true, "activation": "relu"}, "class_name": "Activation"}, {"name": "conv2d_5", "inbound_nodes": [[["activation_4", 0, 0, {}]]], "config": {"padding": "same", "bias_constraint": null, "kernel_initializer": {"config": {"mode": "fan_avg", "scale": 1.0, "dtype": "float32", "distribution": "uniform", "seed": null}, "class_name": "VarianceScaling"}, "trainable": true, "data_format": "channels_first", "kernel_constraint": null, "activity_regularizer": null, "bias_regularizer": null, "dilation_rate": [1, 1], "name": "conv2d_5", "use_bias": true, "bias_initializer": {"config": {"dtype": "float32"}, "class_name": "Zeros"}, "kernel_regularizer": {"config": {"l1": 0.0, "l2": 9.999999747378752e-05}, "class_name": "L1L2"}, "strides": [1, 1], "dtype": "float32", "filters": 128, "kernel_size": [3, 3], "activation": "linear"}, "class_name": "Conv2D"}, {"name": "batch_normalization_5", "inbound_nodes": [[["conv2d_5", 0, 0, {}]]], "config": {"beta_constraint": null, "axis": 1, "scale": true, "moving_variance_initializer": {"config": {"dtype": "float32"}, "class_name": "Ones"}, "trainable": true, "beta_regularizer": null, "beta_initializer": {"config": {"dtype": "float32"}, "class_name": "Zeros"}, "gamma_constraint": null, "moving_mean_initializer": {"config": {"dtype": "float32"}, "class_name": "Zeros"}, "name": "batch_normalization_5", "gamma_regularizer": null, "center": true, "gamma_initializer": {"config": {"dtype": "float32"}, "class_name": "Ones"}, "dtype": "float32", "epsilon": 0.001, "momentum": 0.99}, "class_name": "BatchNormalization"}, {"name": "add_2", "inbound_nodes": [[["activation_3", 0, 0, {}], ["batch_normalization_5", 0, 0, {}]]], "config": {"name": "add_2", "dtype": "float32", "trainable": true}, "class_name": "Add"}, {"name": "activation_5", "inbound_nodes": [[["add_2", 0, 0, {}]]], "config": {"name": "activation_5", "dtype": "float32", "trainable": true, "activation": "relu"}, "class_name": "Activation"}, {"name": "conv2d_6", "inbound_nodes": [[["activation_5", 0, 0, {}]]], "config": {"padding": "same", "bias_constraint": null, "kernel_initializer": {"config": {"mode": "fan_avg", "scale": 1.0, "dtype": "float32", "distribution": "uniform", "seed": null}, "class_name": "VarianceScaling"}, "trainable": true, "data_format": "channels_first", "kernel_constraint": null, "activity_regularizer": null, "bias_regularizer": null, "dilation_rate": [1, 1], "name": "conv2d_6", "use_bias": true, "bias_initializer": {"config": {"dtype": "float32"}, "class_name": "Zeros"}, "kernel_regularizer": {"config": {"l1": 0.0, "l2": 9.999999747378752e-05}, "class_name": "L1L2"}, "strides": [1, 1], "dtype": "float32", "filters": 128, "kernel_size": [3, 3], "activation": "linear"}, "class_name": "Conv2D"}, {"name": "batch_normalization_6", "inbound_nodes": [[["conv2d_6", 0, 0, {}]]], "config": {"beta_constraint": null, "axis": 1, "scale": true, "moving_variance_initializer": {"config": {"dtype": "float32"}, "class_name": "Ones"}, "trainable": true, "beta_regularizer": null, "beta_initializer": {"config": {"dtype": "float32"}, "class_name": "Zeros"}, "gamma_constraint": null, "moving_mean_initializer": {"config": {"dtype": "float32"}, "class_name": "Zeros"}, "name": "batch_normalization_6", "gamma_regularizer": null, "center": true, "gamma_initializer": {"config": {"dtype": "float32"}, "class_name": "Ones"}, "dtype": "float32", "epsilon": 0.001, "momentum": 0.99}, "class_name": "BatchNormalization"}, {"name": "activation_6", "inbound_nodes": [[["batch_normalization_6", 0, 0, {}]]], "config": {"name": "activation_6", "dtype": "float32", "trainable": true, "activation": "relu"}, "class_name": "Activation"}, {"name": "conv2d_7", "inbound_nodes": [[["activation_6", 0, 0, {}]]], "config": {"padding": "same", "bias_constraint": null, "kernel_initializer": {"config": {"mode": "fan_avg", "scale": 1.0, "dtype": "float32", "distribution": "uniform", "seed": null}, "class_name": "VarianceScaling"}, "trainable": true, "data_format": "channels_first", "kernel_constraint": null, "activity_regularizer": null, "bias_regularizer": null, "dilation_rate": [1, 1], "name": "conv2d_7", "use_bias": true, "bias_initializer": {"config": {"dtype": "float32"}, "class_name": "Zeros"}, "kernel_regularizer": {"config": {"l1": 0.0, "l2": 9.999999747378752e-05}, "class_name": "L1L2"}, "strides": [1, 1], "dtype": "float32", "filters": 128, "kernel_size": [3, 3], "activation": "linear"}, "class_name": "Conv2D"}, {"name": "batch_normalization_7", "inbound_nodes": [[["conv2d_7", 0, 0, {}]]], "config": {"beta_constraint": null, "axis": 1, "scale": true, "moving_variance_initializer": {"config": {"dtype": "float32"}, "class_name": "Ones"}, "trainable": true, "beta_regularizer": null, "beta_initializer": {"config": {"dtype": "float32"}, "class_name": "Zeros"}, "gamma_constraint": null, "moving_mean_initializer": {"config": {"dtype": "float32"}, "class_name": "Zeros"}, "name": "batch_normalization_7", "gamma_regularizer": null, "center": true, "gamma_initializer": {"config": {"dtype": "float32"}, "class_name": "Ones"}, "dtype": "float32", "epsilon": 0.001, "momentum": 0.99}, "class_name": "BatchNormalization"}, {"name": "add_3", "inbound_nodes": [[["activation_5", 0, 0, {}], ["batch_normalization_7", 0, 0, {}]]], "config": {"name": "add_3", "dtype": "float32", "trainable": true}, "class_name": "Add"}, {"name": "activation_7", "inbound_nodes": [[["add_3", 0, 0, {}]]], "config": {"name": "activation_7", "dtype": "float32", "trainable": true, "activation": "relu"}, "class_name": "Activation"}, {"name": "conv2d_8", "inbound_nodes": [[["activation_7", 0, 0, {}]]], "config": {"padding": "same", "bias_constraint": null, "kernel_initializer": {"config": {"mode": "fan_avg", "scale": 1.0, "dtype": "float32", "distribution": "uniform", "seed": null}, "class_name": "VarianceScaling"}, "trainable": true, "data_format": "channels_first", "kernel_constraint": null, "activity_regularizer": null, "bias_regularizer": null, "dilation_rate": [1, 1], "name": "conv2d_8", "use_bias": true, "bias_initializer": {"config": {"dtype": "float32"}, "class_name": "Zeros"}, "kernel_regularizer": {"config": {"l1": 0.0, "l2": 9.999999747378752e-05}, "class_name": "L1L2"}, "strides": [1, 1], "dtype": "float32", "filters": 128, "kernel_size": [3, 3], "activation": "linear"}, "class_name": "Conv2D"}, {"name": "batch_normalization_8", "inbound_nodes": [[["conv2d_8", 0, 0, {}]]], "config": {"beta_constraint": null, "axis": 1, "scale": true, "moving_variance_initializer": {"config": {"dtype": "float32"}, "class_name": "Ones"}, "trainable": true, "beta_regularizer": null, "beta_initializer": {"config": {"dtype": "float32"}, "class_name": "Zeros"}, "gamma_constraint": null, "moving_mean_initializer": {"config": {"dtype": "float32"}, "class_name": "Zeros"}, "name": "batch_normalization_8", "gamma_regularizer": null, "center": true, "gamma_initializer": {"config": {"dtype": "float32"}, "class_name": "Ones"}, "dtype": "float32", "epsilon": 0.001, "momentum": 0.99}, "class_name": "BatchNormalization"}, {"name": "activation_8", "inbound_nodes": [[["batch_normalization_8", 0, 0, {}]]], "config": {"name": "activation_8", "dtype": "float32", "trainable": true, "activation": "relu"}, "class_name": "Activation"}, {"name": "conv2d_9", "inbound_nodes": [[["activation_8", 0, 0, {}]]], "config": {"padding": "same", "bias_constraint": null, "kernel_initializer": {"config": {"mode": "fan_avg", "scale": 1.0, "dtype": "float32", "distribution": "uniform", "seed": null}, "class_name": "VarianceScaling"}, "trainable": true, "data_format": "channels_first", "kernel_constraint": null, "activity_regularizer": null, "bias_regularizer": null, "dilation_rate": [1, 1], "name": "conv2d_9", "use_bias": true, "bias_initializer": {"config": {"dtype": "float32"}, "class_name": "Zeros"}, "kernel_regularizer": {"config": {"l1": 0.0, "l2": 9.999999747378752e-05}, "class_name": "L1L2"}, "strides": [1, 1], "dtype": "float32", "filters": 128, "kernel_size": [3, 3], "activation": "linear"}, "class_name": "Conv2D"}, {"name": "batch_normalization_9", "inbound_nodes": [[["conv2d_9", 0, 0, {}]]], "config": {"beta_constraint": null, "axis": 1, "scale": true, "moving_variance_initializer": {"config": {"dtype": "float32"}, "class_name": "Ones"}, "trainable": true, "beta_regularizer": null, "beta_initializer": {"config": {"dtype": "float32"}, "class_name": "Zeros"}, "gamma_constraint": null, "moving_mean_initializer": {"config": {"dtype": "float32"}, "class_name": "Zeros"}, "name": "batch_normalization_9", "gamma_regularizer": null, "center": true, "gamma_initializer": {"config": {"dtype": "float32"}, "class_name": "Ones"}, "dtype": "float32", "epsilon": 0.001, "momentum": 0.99}, "class_name": "BatchNormalization"}, {"name": "add_4", "inbound_nodes": [[["activation_7", 0, 0, {}], ["batch_normalization_9", 0, 0, {}]]], "config": {"name": "add_4", "dtype": "float32", "trainable": true}, "class_name": "Add"}, {"name": "activation_9", "inbound_nodes": [[["add_4", 0, 0, {}]]], "config": {"name": "activation_9", "dtype": "float32", "trainable": true, "activation": "relu"}, "class_name": "Activation"}, {"name": "conv2d_10", "inbound_nodes": [[["activation_9", 0, 0, {}]]], "config": {"padding": "same", "bias_constraint": null, "kernel_initializer": {"config": {"mode": "fan_avg", "scale": 1.0, "dtype": "float32", "distribution": "uniform", "seed": null}, "class_name": "VarianceScaling"}, "trainable": true, "data_format": "channels_first", "kernel_constraint": null, "activity_regularizer": null, "bias_regularizer": null, "dilation_rate": [1, 1], "name": "conv2d_10", "use_bias": true, "bias_initializer": {"config": {"dtype": "float32"}, "class_name": "Zeros"}, "kernel_regularizer": {"config": {"l1": 0.0, "l2": 9.999999747378752e-05}, "class_name": "L1L2"}, "strides": [1, 1], "dtype": "float32", "filters": 128, "kernel_size": [3, 3], "activation": "linear"}, "class_name": "Conv2D"}, {"name": "batch_normalization_10", "inbound_nodes": [[["conv2d_10", 0, 0, {}]]], "config": {"beta_constraint": null, "axis": 1, "scale": true, "moving_variance_initializer": {"config": {"dtype": "float32"}, "class_name": "Ones"}, "trainable": true, "beta_regularizer": null, "beta_initializer": {"config": {"dtype": "float32"}, "class_name": "Zeros"}, "gamma_constraint": null, "moving_mean_initializer": {"config": {"dtype": "float32"}, "class_name": "Zeros"}, "name": "batch_normalization_10", "gamma_regularizer": null, "center": true, "gamma_initializer": {"config": {"dtype": "float32"}, "class_name": "Ones"}, "dtype": "float32", "epsilon": 0.001, "momentum": 0.99}, "class_name": "BatchNormalization"}, {"name": "activation_10", "inbound_nodes": [[["batch_normalization_10", 0, 0, {}]]], "config": {"name": "activation_10", "dtype": "float32", "trainable": true, "activation": "relu"}, "class_name": "Activation"}, {"name": "conv2d_11", "inbound_nodes": [[["activation_10", 0, 0, {}]]], "config": {"padding": "same", "bias_constraint": null, "kernel_initializer": {"config": {"mode": "fan_avg", "scale": 1.0, "dtype": "float32", "distribution": "uniform", "seed": null}, "class_name": "VarianceScaling"}, "trainable": true, "data_format": "channels_first", "kernel_constraint": null, "activity_regularizer": null, "bias_regularizer": null, "dilation_rate": [1, 1], "name": "conv2d_11", "use_bias": true, "bias_initializer": {"config": {"dtype": "float32"}, "class_name": "Zeros"}, "kernel_regularizer": {"config": {"l1": 0.0, "l2": 9.999999747378752e-05}, "class_name": "L1L2"}, "strides": [1, 1], "dtype": "float32", "filters": 128, "kernel_size": [3, 3], "activation": "linear"}, "class_name": "Conv2D"}, {"name": "batch_normalization_11", "inbound_nodes": [[["conv2d_11", 0, 0, {}]]], "config": {"beta_constraint": null, "axis": 1, "scale": true, "moving_variance_initializer": {"config": {"dtype": "float32"}, "class_name": "Ones"}, "trainable": true, "beta_regularizer": null, "beta_initializer": {"config": {"dtype": "float32"}, "class_name": "Zeros"}, "gamma_constraint": null, "moving_mean_initializer": {"config": {"dtype": "float32"}, "class_name": "Zeros"}, "name": "batch_normalization_11", "gamma_regularizer": null, "center": true, "gamma_initializer": {"config": {"dtype": "float32"}, "class_name": "Ones"}, "dtype": "float32", "epsilon": 0.001, "momentum": 0.99}, "class_name": "BatchNormalization"}, {"name": "add_5", "inbound_nodes": [[["activation_9", 0, 0, {}], ["batch_normalization_11", 0, 0, {}]]], "config": {"name": "add_5", "dtype": "float32", "trainable": true}, "class_name": "Add"}, {"name": "activation_11", "inbound_nodes": [[["add_5", 0, 0, {}]]], "config": {"name": "activation_11", "dtype": "float32", "trainable": true, "activation": "relu"}, "class_name": "Activation"}, {"name": "conv2d_12", "inbound_nodes": [[["activation_11", 0, 0, {}]]], "config": {"padding": "same", "bias_constraint": null, "kernel_initializer": {"config": {"mode": "fan_avg", "scale": 1.0, "dtype": "float32", "distribution": "uniform", "seed": null}, "class_name": "VarianceScaling"}, "trainable": true, "data_format": "channels_first", "kernel_constraint": null, "activity_regularizer": null, "bias_regularizer": null, "dilation_rate": [1, 1], "name": "conv2d_12", "use_bias": true, "bias_initializer": {"config": {"dtype": "float32"}, "class_name": "Zeros"}, "kernel_regularizer": {"config": {"l1": 0.0, "l2": 9.999999747378752e-05}, "class_name": "L1L2"}, "strides": [1, 1], "dtype": "float32", "filters": 128, "kernel_size": [3, 3], "activation": "linear"}, "class_name": "Conv2D"}, {"name": "batch_normalization_12", "inbound_nodes": [[["conv2d_12", 0, 0, {}]]], "config": {"beta_constraint": null, "axis": 1, "scale": true, "moving_variance_initializer": {"config": {"dtype": "float32"}, "class_name": "Ones"}, "trainable": true, "beta_regularizer": null, "beta_initializer": {"config": {"dtype": "float32"}, "class_name": "Zeros"}, "gamma_constraint": null, "moving_mean_initializer": {"config": {"dtype": "float32"}, "class_name": "Zeros"}, "name": "batch_normalization_12", "gamma_regularizer": null, "center": true, "gamma_initializer": {"config": {"dtype": "float32"}, "class_name": "Ones"}, "dtype": "float32", "epsilon": 0.001, "momentum": 0.99}, "class_name": "BatchNormalization"}, {"name": "activation_12", "inbound_nodes": [[["batch_normalization_12", 0, 0, {}]]], "config": {"name": "activation_12", "dtype": "float32", "trainable": true, "activation": "relu"}, "class_name": "Activation"}, {"name": "conv2d_13", "inbound_nodes": [[["activation_12", 0, 0, {}]]], "config": {"padding": "same", "bias_constraint": null, "kernel_initializer": {"config": {"mode": "fan_avg", "scale": 1.0, "dtype": "float32", "distribution": "uniform", "seed": null}, "class_name": "VarianceScaling"}, "trainable": true, "data_format": "channels_first", "kernel_constraint": null, "activity_regularizer": null, "bias_regularizer": null, "dilation_rate": [1, 1], "name": "conv2d_13", "use_bias": true, "bias_initializer": {"config": {"dtype": "float32"}, "class_name": "Zeros"}, "kernel_regularizer": {"config": {"l1": 0.0, "l2": 9.999999747378752e-05}, "class_name": "L1L2"}, "strides": [1, 1], "dtype": "float32", "filters": 128, "kernel_size": [3, 3], "activation": "linear"}, "class_name": "Conv2D"}, {"name": "batch_normalization_13", "inbound_nodes": [[["conv2d_13", 0, 0, {}]]], "config": {"beta_constraint": null, "axis": 1, "scale": true, "moving_variance_initializer": {"config": {"dtype": "float32"}, "class_name": "Ones"}, "trainable": true, "beta_regularizer": null, "beta_initializer": {"config": {"dtype": "float32"}, "class_name": "Zeros"}, "gamma_constraint": null, "moving_mean_initializer": {"config": {"dtype": "float32"}, "class_name": "Zeros"}, "name": "batch_normalization_13", "gamma_regularizer": null, "center": true, "gamma_initializer": {"config": {"dtype": "float32"}, "class_name": "Ones"}, "dtype": "float32", "epsilon": 0.001, "momentum": 0.99}, "class_name": "BatchNormalization"}, {"name": "add_6", "inbound_nodes": [[["activation_11", 0, 0, {}], ["batch_normalization_13", 0, 0, {}]]], "config": {"name": "add_6", "dtype": "float32", "trainable": true}, "class_name": "Add"}, {"name": "activation_13", "inbound_nodes": [[["add_6", 0, 0, {}]]], "config": {"name": "activation_13", "dtype": "float32", "trainable": true, "activation": "relu"}, "class_name": "Activation"}, {"name": "conv2d_14", "inbound_nodes": [[["activation_13", 0, 0, {}]]], "config": {"padding": "same", "bias_constraint": null, "kernel_initializer": {"config": {"mode": "fan_avg", "scale": 1.0, "dtype": "float32", "distribution": "uniform", "seed": null}, "class_name": "VarianceScaling"}, "trainable": true, "data_format": "channels_first", "kernel_constraint": null, "activity_regularizer": null, "bias_regularizer": null, "dilation_rate": [1, 1], "name": "conv2d_14", "use_bias": true, "bias_initializer": {"config": {"dtype": "float32"}, "class_name": "Zeros"}, "kernel_regularizer": {"config": {"l1": 0.0, "l2": 9.999999747378752e-05}, "class_name": "L1L2"}, "strides": [1, 1], "dtype": "float32", "filters": 128, "kernel_size": [3, 3], "activation": "linear"}, "class_name": "Conv2D"}, {"name": "batch_normalization_14", "inbound_nodes": [[["conv2d_14", 0, 0, {}]]], "config": {"beta_constraint": null, "axis": 1, "scale": true, "moving_variance_initializer": {"config": {"dtype": "float32"}, "class_name": "Ones"}, "trainable": true, "beta_regularizer": null, "beta_initializer": {"config": {"dtype": "float32"}, "class_name": "Zeros"}, "gamma_constraint": null, "moving_mean_initializer": {"config": {"dtype": "float32"}, "class_name": "Zeros"}, "name": "batch_normalization_14", "gamma_regularizer": null, "center": true, "gamma_initializer": {"config": {"dtype": "float32"}, "class_name": "Ones"}, "dtype": "float32", "epsilon": 0.001, "momentum": 0.99}, "class_name": "BatchNormalization"}, {"name": "activation_14", "inbound_nodes": [[["batch_normalization_14", 0, 0, {}]]], "config": {"name": "activation_14", "dtype": "float32", "trainable": true, "activation": "relu"}, "class_name": "Activation"}, {"name": "conv2d_15", "inbound_nodes": [[["activation_14", 0, 0, {}]]], "config": {"padding": "same", "bias_constraint": null, "kernel_initializer": {"config": {"mode": "fan_avg", "scale": 1.0, "dtype": "float32", "distribution": "uniform", "seed": null}, "class_name": "VarianceScaling"}, "trainable": true, "data_format": "channels_first", "kernel_constraint": null, "activity_regularizer": null, "bias_regularizer": null, "dilation_rate": [1, 1], "name": "conv2d_15", "use_bias": true, "bias_initializer": {"config": {"dtype": "float32"}, "class_name": "Zeros"}, "kernel_regularizer": {"config": {"l1": 0.0, "l2": 9.999999747378752e-05}, "class_name": "L1L2"}, "strides": [1, 1], "dtype": "float32", "filters": 128, "kernel_size": [3, 3], "activation": "linear"}, "class_name": "Conv2D"}, {"name": "batch_normalization_15", "inbound_nodes": [[["conv2d_15", 0, 0, {}]]], "config": {"beta_constraint": null, "axis": 1, "scale": true, "moving_variance_initializer": {"config": {"dtype": "float32"}, "class_name": "Ones"}, "trainable": true, "beta_regularizer": null, "beta_initializer": {"config": {"dtype": "float32"}, "class_name": "Zeros"}, "gamma_constraint": null, "moving_mean_initializer": {"config": {"dtype": "float32"}, "class_name": "Zeros"}, "name": "batch_normalization_15", "gamma_regularizer": null, "center": true, "gamma_initializer": {"config": {"dtype": "float32"}, "class_name": "Ones"}, "dtype": "float32", "epsilon": 0.001, "momentum": 0.99}, "class_name": "BatchNormalization"}, {"name": "add_7", "inbound_nodes": [[["activation_13", 0, 0, {}], ["batch_normalization_15", 0, 0, {}]]], "config": {"name": "add_7", "dtype": "float32", "trainable": true}, "class_name": "Add"}, {"name": "activation_15", "inbound_nodes": [[["add_7", 0, 0, {}]]], "config": {"name": "activation_15", "dtype": "float32", "trainable": true, "activation": "relu"}, "class_name": "Activation"}, {"name": "conv2d_16", "inbound_nodes": [[["activation_15", 0, 0, {}]]], "config": {"padding": "same", "bias_constraint": null, "kernel_initializer": {"config": {"mode": "fan_avg", "scale": 1.0, "dtype": "float32", "distribution": "uniform", "seed": null}, "class_name": "VarianceScaling"}, "trainable": true, "data_format": "channels_first", "kernel_constraint": null, "activity_regularizer": null, "bias_regularizer": null, "dilation_rate": [1, 1], "name": "conv2d_16", "use_bias": true, "bias_initializer": {"config": {"dtype": "float32"}, "class_name": "Zeros"}, "kernel_regularizer": {"config": {"l1": 0.0, "l2": 9.999999747378752e-05}, "class_name": "L1L2"}, "strides": [1, 1], "dtype": "float32", "filters": 128, "kernel_size": [3, 3], "activation": "linear"}, "class_name": "Conv2D"}, {"name": "batch_normalization_16", "inbound_nodes": [[["conv2d_16", 0, 0, {}]]], "config": {"beta_constraint": null, "axis": 1, "scale": true, "moving_variance_initializer": {"config": {"dtype": "float32"}, "class_name": "Ones"}, "trainable": true, "beta_regularizer": null, "beta_initializer": {"config": {"dtype": "float32"}, "class_name": "Zeros"}, "gamma_constraint": null, "moving_mean_initializer": {"config": {"dtype": "float32"}, "class_name": "Zeros"}, "name": "batch_normalization_16", "gamma_regularizer": null, "center": true, "gamma_initializer": {"config": {"dtype": "float32"}, "class_name": "Ones"}, "dtype": "float32", "epsilon": 0.001, "momentum": 0.99}, "class_name": "BatchNormalization"}, {"name": "activation_16", "inbound_nodes": [[["batch_normalization_16", 0, 0, {}]]], "config": {"name": "activation_16", "dtype": "float32", "trainable": true, "activation": "relu"}, "class_name": "Activation"}, {"name": "conv2d_17", "inbound_nodes": [[["activation_16", 0, 0, {}]]], "config": {"padding": "same", "bias_constraint": null, "kernel_initializer": {"config": {"mode": "fan_avg", "scale": 1.0, "dtype": "float32", "distribution": "uniform", "seed": null}, "class_name": "VarianceScaling"}, "trainable": true, "data_format": "channels_first", "kernel_constraint": null, "activity_regularizer": null, "bias_regularizer": null, "dilation_rate": [1, 1], "name": "conv2d_17", "use_bias": true, "bias_initializer": {"config": {"dtype": "float32"}, "class_name": "Zeros"}, "kernel_regularizer": {"config": {"l1": 0.0, "l2": 9.999999747378752e-05}, "class_name": "L1L2"}, "strides": [1, 1], "dtype": "float32", "filters": 128, "kernel_size": [3, 3], "activation": "linear"}, "class_name": "Conv2D"}, {"name": "batch_normalization_17", "inbound_nodes": [[["conv2d_17", 0, 0, {}]]], "config": {"beta_constraint": null, "axis": 1, "scale": true, "moving_variance_initializer": {"config": {"dtype": "float32"}, "class_name": "Ones"}, "trainable": true, "beta_regularizer": null, "beta_initializer": {"config": {"dtype": "float32"}, "class_name": "Zeros"}, "gamma_constraint": null, "moving_mean_initializer": {"config": {"dtype": "float32"}, "class_name": "Zeros"}, "name": "batch_normalization_17", "gamma_regularizer": null, "center": true, "gamma_initializer": {"config": {"dtype": "float32"}, "class_name": "Ones"}, "dtype": "float32", "epsilon": 0.001, "momentum": 0.99}, "class_name": "BatchNormalization"}, {"name": "add_8", "inbound_nodes": [[["activation_15", 0, 0, {}], ["batch_normalization_17", 0, 0, {}]]], "config": {"name": "add_8", "dtype": "float32", "trainable": true}, "class_name": "Add"}, {"name": "activation_17", "inbound_nodes": [[["add_8", 0, 0, {}]]], "config": {"name": "activation_17", "dtype": "float32", "trainable": true, "activation": "relu"}, "class_name": "Activation"}, {"name": "conv2d_18", "inbound_nodes": [[["activation_17", 0, 0, {}]]], "config": {"padding": "same", "bias_constraint": null, "kernel_initializer": {"config": {"mode": "fan_avg", "scale": 1.0, "dtype": "float32", "distribution": "uniform", "seed": null}, "class_name": "VarianceScaling"}, "trainable": true, "data_format": "channels_first", "kernel_constraint": null, "activity_regularizer": null, "bias_regularizer": null, "dilation_rate": [1, 1], "name": "conv2d_18", "use_bias": true, "bias_initializer": {"config": {"dtype": "float32"}, "class_name": "Zeros"}, "kernel_regularizer": {"config": {"l1": 0.0, "l2": 9.999999747378752e-05}, "class_name": "L1L2"}, "strides": [1, 1], "dtype": "float32", "filters": 128, "kernel_size": [3, 3], "activation": "linear"}, "class_name": "Conv2D"}, {"name": "batch_normalization_18", "inbound_nodes": [[["conv2d_18", 0, 0, {}]]], "config": {"beta_constraint": null, "axis": 1, "scale": true, "moving_variance_initializer": {"config": {"dtype": "float32"}, "class_name": "Ones"}, "trainable": true, "beta_regularizer": null, "beta_initializer": {"config": {"dtype": "float32"}, "class_name": "Zeros"}, "gamma_constraint": null, "moving_mean_initializer": {"config": {"dtype": "float32"}, "class_name": "Zeros"}, "name": "batch_normalization_18", "gamma_regularizer": null, "center": true, "gamma_initializer": {"config": {"dtype": "float32"}, "class_name": "Ones"}, "dtype": "float32", "epsilon": 0.001, "momentum": 0.99}, "class_name": "BatchNormalization"}, {"name": "activation_18", "inbound_nodes": [[["batch_normalization_18", 0, 0, {}]]], "config": {"name": "activation_18", "dtype": "float32", "trainable": true, "activation": "relu"}, "class_name": "Activation"}, {"name": "conv2d_19", "inbound_nodes": [[["activation_18", 0, 0, {}]]], "config": {"padding": "same", "bias_constraint": null, "kernel_initializer": {"config": {"mode": "fan_avg", "scale": 1.0, "dtype": "float32", "distribution": "uniform", "seed": null}, "class_name": "VarianceScaling"}, "trainable": true, "data_format": "channels_first", "kernel_constraint": null, "activity_regularizer": null, "bias_regularizer": null, "dilation_rate": [1, 1], "name": "conv2d_19", "use_bias": true, "bias_initializer": {"config": {"dtype": "float32"}, "class_name": "Zeros"}, "kernel_regularizer": {"config": {"l1": 0.0, "l2": 9.999999747378752e-05}, "class_name": "L1L2"}, "strides": [1, 1], "dtype": "float32", "filters": 128, "kernel_size": [3, 3], "activation": "linear"}, "class_name": "Conv2D"}, {"name": "batch_normalization_19", "inbound_nodes": [[["conv2d_19", 0, 0, {}]]], "config": {"beta_constraint": null, "axis": 1, "scale": true, "moving_variance_initializer": {"config": {"dtype": "float32"}, "class_name": "Ones"}, "trainable": true, "beta_regularizer": null, "beta_initializer": {"config": {"dtype": "float32"}, "class_name": "Zeros"}, "gamma_constraint": null, "moving_mean_initializer": {"config": {"dtype": "float32"}, "class_name": "Zeros"}, "name": "batch_normalization_19", "gamma_regularizer": null, "center": true, "gamma_initializer": {"config": {"dtype": "float32"}, "class_name": "Ones"}, "dtype": "float32", "epsilon": 0.001, "momentum": 0.99}, "class_name": "BatchNormalization"}, {"name": "add_9", "inbound_nodes": [[["activation_17", 0, 0, {}], ["batch_normalization_19", 0, 0, {}]]], "config": {"name": "add_9", "dtype": "float32", "trainable": true}, "class_name": "Add"}, {"name": "activation_19", "inbound_nodes": [[["add_9", 0, 0, {}]]], "config": {"name": "activation_19", "dtype": "float32", "trainable": true, "activation": "relu"}, "class_name": "Activation"}, {"name": "conv2d_20", "inbound_nodes": [[["activation_19", 0, 0, {}]]], "config": {"padding": "same", "bias_constraint": null, "kernel_initializer": {"config": {"mode": "fan_avg", "scale": 1.0, "dtype": "float32", "distribution": "uniform", "seed": null}, "class_name": "VarianceScaling"}, "trainable": true, "data_format": "channels_first", "kernel_constraint": null, "activity_regularizer": null, "bias_regularizer": null, "dilation_rate": [1, 1], "name": "conv2d_20", "use_bias": true, "bias_initializer": {"config": {"dtype": "float32"}, "class_name": "Zeros"}, "kernel_regularizer": {"config": {"l1": 0.0, "l2": 9.999999747378752e-05}, "class_name": "L1L2"}, "strides": [1, 1], "dtype": "float32", "filters": 128, "kernel_size": [3, 3], "activation": "linear"}, "class_name": "Conv2D"}, {"name": "batch_normalization_20", "inbound_nodes": [[["conv2d_20", 0, 0, {}]]], "config": {"beta_constraint": null, "axis": 1, "scale": true, "moving_variance_initializer": {"config": {"dtype": "float32"}, "class_name": "Ones"}, "trainable": true, "beta_regularizer": null, "beta_initializer": {"config": {"dtype": "float32"}, "class_name": "Zeros"}, "gamma_constraint": null, "moving_mean_initializer": {"config": {"dtype": "float32"}, "class_name": "Zeros"}, "name": "batch_normalization_20", "gamma_regularizer": null, "center": true, "gamma_initializer": {"config": {"dtype": "float32"}, "class_name": "Ones"}, "dtype": "float32", "epsilon": 0.001, "momentum": 0.99}, "class_name": "BatchNormalization"}, {"name": "activation_20", "inbound_nodes": [[["batch_normalization_20", 0, 0, {}]]], "config": {"name": "activation_20", "dtype": "float32", "trainable": true, "activation": "relu"}, "class_name": "Activation"}, {"name": "conv2d_21", "inbound_nodes": [[["activation_20", 0, 0, {}]]], "config": {"padding": "same", "bias_constraint": null, "kernel_initializer": {"config": {"mode": "fan_avg", "scale": 1.0, "dtype": "float32", "distribution": "uniform", "seed": null}, "class_name": "VarianceScaling"}, "trainable": true, "data_format": "channels_first", "kernel_constraint": null, "activity_regularizer": null, "bias_regularizer": null, "dilation_rate": [1, 1], "name": "conv2d_21", "use_bias": true, "bias_initializer": {"config": {"dtype": "float32"}, "class_name": "Zeros"}, "kernel_regularizer": {"config": {"l1": 0.0, "l2": 9.999999747378752e-05}, "class_name": "L1L2"}, "strides": [1, 1], "dtype": "float32", "filters": 128, "kernel_size": [3, 3], "activation": "linear"}, "class_name": "Conv2D"}, {"name": "batch_normalization_21", "inbound_nodes": [[["conv2d_21", 0, 0, {}]]], "config": {"beta_constraint": null, "axis": 1, "scale": true, "moving_variance_initializer": {"config": {"dtype": "float32"}, "class_name": "Ones"}, "trainable": true, "beta_regularizer": null, "beta_initializer": {"config": {"dtype": "float32"}, "class_name": "Zeros"}, "gamma_constraint": null, "moving_mean_initializer": {"config": {"dtype": "float32"}, "class_name": "Zeros"}, "name": "batch_normalization_21", "gamma_regularizer": null, "center": true, "gamma_initializer": {"config": {"dtype": "float32"}, "class_name": "Ones"}, "dtype": "float32", "epsilon": 0.001, "momentum": 0.99}, "class_name": "BatchNormalization"}, {"name": "add_10", "inbound_nodes": [[["activation_19", 0, 0, {}], ["batch_normalization_21", 0, 0, {}]]], "config": {"name": "add_10", "dtype": "float32", "trainable": true}, "class_name": "Add"}, {"name": "activation_21", "inbound_nodes": [[["add_10", 0, 0, {}]]], "config": {"name": "activation_21", "dtype": "float32", "trainable": true, "activation": "relu"}, "class_name": "Activation"}, {"name": "conv2d_22", "inbound_nodes": [[["activation_21", 0, 0, {}]]], "config": {"padding": "same", "bias_constraint": null, "kernel_initializer": {"config": {"mode": "fan_avg", "scale": 1.0, "dtype": "float32", "distribution": "uniform", "seed": null}, "class_name": "VarianceScaling"}, "trainable": true, "data_format": "channels_first", "kernel_constraint": null, "activity_regularizer": null, "bias_regularizer": null, "dilation_rate": [1, 1], "name": "conv2d_22", "use_bias": true, "bias_initializer": {"config": {"dtype": "float32"}, "class_name": "Zeros"}, "kernel_regularizer": {"config": {"l1": 0.0, "l2": 9.999999747378752e-05}, "class_name": "L1L2"}, "strides": [1, 1], "dtype": "float32", "filters": 128, "kernel_size": [3, 3], "activation": "linear"}, "class_name": "Conv2D"}, {"name": "batch_normalization_22", "inbound_nodes": [[["conv2d_22", 0, 0, {}]]], "config": {"beta_constraint": null, "axis": 1, "scale": true, "moving_variance_initializer": {"config": {"dtype": "float32"}, "class_name": "Ones"}, "trainable": true, "beta_regularizer": null, "beta_initializer": {"config": {"dtype": "float32"}, "class_name": "Zeros"}, "gamma_constraint": null, "moving_mean_initializer": {"config": {"dtype": "float32"}, "class_name": "Zeros"}, "name": "batch_normalization_22", "gamma_regularizer": null, "center": true, "gamma_initializer": {"config": {"dtype": "float32"}, "class_name": "Ones"}, "dtype": "float32", "epsilon": 0.001, "momentum": 0.99}, "class_name": "BatchNormalization"}, {"name": "activation_22", "inbound_nodes": [[["batch_normalization_22", 0, 0, {}]]], "config": {"name": "activation_22", "dtype": "float32", "trainable": true, "activation": "relu"}, "class_name": "Activation"}, {"name": "conv2d_23", "inbound_nodes": [[["activation_22", 0, 0, {}]]], "config": {"padding": "same", "bias_constraint": null, "kernel_initializer": {"config": {"mode": "fan_avg", "scale": 1.0, "dtype": "float32", "distribution": "uniform", "seed": null}, "class_name": "VarianceScaling"}, "trainable": true, "data_format": "channels_first", "kernel_constraint": null, "activity_regularizer": null, "bias_regularizer": null, "dilation_rate": [1, 1], "name": "conv2d_23", "use_bias": true, "bias_initializer": {"config": {"dtype": "float32"}, "class_name": "Zeros"}, "kernel_regularizer": {"config": {"l1": 0.0, "l2": 9.999999747378752e-05}, "class_name": "L1L2"}, "strides": [1, 1], "dtype": "float32", "filters": 128, "kernel_size": [3, 3], "activation": "linear"}, "class_name": "Conv2D"}, {"name": "batch_normalization_23", "inbound_nodes": [[["conv2d_23", 0, 0, {}]]], "config": {"beta_constraint": null, "axis": 1, "scale": true, "moving_variance_initializer": {"config": {"dtype": "float32"}, "class_name": "Ones"}, "trainable": true, "beta_regularizer": null, "beta_initializer": {"config": {"dtype": "float32"}, "class_name": "Zeros"}, "gamma_constraint": null, "moving_mean_initializer": {"config": {"dtype": "float32"}, "class_name": "Zeros"}, "name": "batch_normalization_23", "gamma_regularizer": null, "center": true, "gamma_initializer": {"config": {"dtype": "float32"}, "class_name": "Ones"}, "dtype": "float32", "epsilon": 0.001, "momentum": 0.99}, "class_name": "BatchNormalization"}, {"name": "add_11", "inbound_nodes": [[["activation_21", 0, 0, {}], ["batch_normalization_23", 0, 0, {}]]], "config": {"name": "add_11", "dtype": "float32", "trainable": true}, "class_name": "Add"}, {"name": "activation_23", "inbound_nodes": [[["add_11", 0, 0, {}]]], "config": {"name": "activation_23", "dtype": "float32", "trainable": true, "activation": "relu"}, "class_name": "Activation"}, {"name": "conv2d_24", "inbound_nodes": [[["activation_23", 0, 0, {}]]], "config": {"padding": "same", "bias_constraint": null, "kernel_initializer": {"config": {"mode": "fan_avg", "scale": 1.0, "dtype": "float32", "distribution": "uniform", "seed": null}, "class_name": "VarianceScaling"}, "trainable": true, "data_format": "channels_first", "kernel_constraint": null, "activity_regularizer": null, "bias_regularizer": null, "dilation_rate": [1, 1], "name": "conv2d_24", "use_bias": true, "bias_initializer": {"config": {"dtype": "float32"}, "class_name": "Zeros"}, "kernel_regularizer": {"config": {"l1": 0.0, "l2": 9.999999747378752e-05}, "class_name": "L1L2"}, "strides": [1, 1], "dtype": "float32", "filters": 128, "kernel_size": [3, 3], "activation": "linear"}, "class_name": "Conv2D"}, {"name": "batch_normalization_24", "inbound_nodes": [[["conv2d_24", 0, 0, {}]]], "config": {"beta_constraint": null, "axis": 1, "scale": true, "moving_variance_initializer": {"config": {"dtype": "float32"}, "class_name": "Ones"}, "trainable": true, "beta_regularizer": null, "beta_initializer": {"config": {"dtype": "float32"}, "class_name": "Zeros"}, "gamma_constraint": null, "moving_mean_initializer": {"config": {"dtype": "float32"}, "class_name": "Zeros"}, "name": "batch_normalization_24", "gamma_regularizer": null, "center": true, "gamma_initializer": {"config": {"dtype": "float32"}, "class_name": "Ones"}, "dtype": "float32", "epsilon": 0.001, "momentum": 0.99}, "class_name": "BatchNormalization"}, {"name": "activation_24", "inbound_nodes": [[["batch_normalization_24", 0, 0, {}]]], "config": {"name": "activation_24", "dtype": "float32", "trainable": true, "activation": "relu"}, "class_name": "Activation"}, {"name": "conv2d_25", "inbound_nodes": [[["activation_24", 0, 0, {}]]], "config": {"padding": "same", "bias_constraint": null, "kernel_initializer": {"config": {"mode": "fan_avg", "scale": 1.0, "dtype": "float32", "distribution": "uniform", "seed": null}, "class_name": "VarianceScaling"}, "trainable": true, "data_format": "channels_first", "kernel_constraint": null, "activity_regularizer": null, "bias_regularizer": null, "dilation_rate": [1, 1], "name": "conv2d_25", "use_bias": true, "bias_initializer": {"config": {"dtype": "float32"}, "class_name": "Zeros"}, "kernel_regularizer": {"config": {"l1": 0.0, "l2": 9.999999747378752e-05}, "class_name": "L1L2"}, "strides": [1, 1], "dtype": "float32", "filters": 128, "kernel_size": [3, 3], "activation": "linear"}, "class_name": "Conv2D"}, {"name": "batch_normalization_25", "inbound_nodes": [[["conv2d_25", 0, 0, {}]]], "config": {"beta_constraint": null, "axis": 1, "scale": true, "moving_variance_initializer": {"config": {"dtype": "float32"}, "class_name": "Ones"}, "trainable": true, "beta_regularizer": null, "beta_initializer": {"config": {"dtype": "float32"}, "class_name": "Zeros"}, "gamma_constraint": null, "moving_mean_initializer": {"config": {"dtype": "float32"}, "class_name": "Zeros"}, "name": "batch_normalization_25", "gamma_regularizer": null, "center": true, "gamma_initializer": {"config": {"dtype": "float32"}, "class_name": "Ones"}, "dtype": "float32", "epsilon": 0.001, "momentum": 0.99}, "class_name": "BatchNormalization"}, {"name": "add_12", "inbound_nodes": [[["activation_23", 0, 0, {}], ["batch_normalization_25", 0, 0, {}]]], "config": {"name": "add_12", "dtype": "float32", "trainable": true}, "class_name": "Add"}, {"name": "activation_25", "inbound_nodes": [[["add_12", 0, 0, {}]]], "config": {"name": "activation_25", "dtype": "float32", "trainable": true, "activation": "relu"}, "class_name": "Activation"}, {"name": "conv2d_26", "inbound_nodes": [[["activation_25", 0, 0, {}]]], "config": {"padding": "same", "bias_constraint": null, "kernel_initializer": {"config": {"mode": "fan_avg", "scale": 1.0, "dtype": "float32", "distribution": "uniform", "seed": null}, "class_name": "VarianceScaling"}, "trainable": true, "data_format": "channels_first", "kernel_constraint": null, "activity_regularizer": null, "bias_regularizer": null, "dilation_rate": [1, 1], "name": "conv2d_26", "use_bias": true, "bias_initializer": {"config": {"dtype": "float32"}, "class_name": "Zeros"}, "kernel_regularizer": {"config": {"l1": 0.0, "l2": 9.999999747378752e-05}, "class_name": "L1L2"}, "strides": [1, 1], "dtype": "float32", "filters": 128, "kernel_size": [3, 3], "activation": "linear"}, "class_name": "Conv2D"}, {"name": "batch_normalization_26", "inbound_nodes": [[["conv2d_26", 0, 0, {}]]], "config": {"beta_constraint": null, "axis": 1, "scale": true, "moving_variance_initializer": {"config": {"dtype": "float32"}, "class_name": "Ones"}, "trainable": true, "beta_regularizer": null, "beta_initializer": {"config": {"dtype": "float32"}, "class_name": "Zeros"}, "gamma_constraint": null, "moving_mean_initializer": {"config": {"dtype": "float32"}, "class_name": "Zeros"}, "name": "batch_normalization_26", "gamma_regularizer": null, "center": true, "gamma_initializer": {"config": {"dtype": "float32"}, "class_name": "Ones"}, "dtype": "float32", "epsilon": 0.001, "momentum": 0.99}, "class_name": "BatchNormalization"}, {"name": "activation_26", "inbound_nodes": [[["batch_normalization_26", 0, 0, {}]]], "config": {"name": "activation_26", "dtype": "float32", "trainable": true, "activation": "relu"}, "class_name": "Activation"}, {"name": "conv2d_27", "inbound_nodes": [[["activation_26", 0, 0, {}]]], "config": {"padding": "same", "bias_constraint": null, "kernel_initializer": {"config": {"mode": "fan_avg", "scale": 1.0, "dtype": "float32", "distribution": "uniform", "seed": null}, "class_name": "VarianceScaling"}, "trainable": true, "data_format": "channels_first", "kernel_constraint": null, "activity_regularizer": null, "bias_regularizer": null, "dilation_rate": [1, 1], "name": "conv2d_27", "use_bias": true, "bias_initializer": {"config": {"dtype": "float32"}, "class_name": "Zeros"}, "kernel_regularizer": {"config": {"l1": 0.0, "l2": 9.999999747378752e-05}, "class_name": "L1L2"}, "strides": [1, 1], "dtype": "float32", "filters": 128, "kernel_size": [3, 3], "activation": "linear"}, "class_name": "Conv2D"}, {"name": "batch_normalization_27", "inbound_nodes": [[["conv2d_27", 0, 0, {}]]], "config": {"beta_constraint": null, "axis": 1, "scale": true, "moving_variance_initializer": {"config": {"dtype": "float32"}, "class_name": "Ones"}, "trainable": true, "beta_regularizer": null, "beta_initializer": {"config": {"dtype": "float32"}, "class_name": "Zeros"}, "gamma_constraint": null, "moving_mean_initializer": {"config": {"dtype": "float32"}, "class_name": "Zeros"}, "name": "batch_normalization_27", "gamma_regularizer": null, "center": true, "gamma_initializer": {"config": {"dtype": "float32"}, "class_name": "Ones"}, "dtype": "float32", "epsilon": 0.001, "momentum": 0.99}, "class_name": "BatchNormalization"}, {"name": "add_13", "inbound_nodes": [[["activation_25", 0, 0, {}], ["batch_normalization_27", 0, 0, {}]]], "config": {"name": "add_13", "dtype": "float32", "trainable": true}, "class_name": "Add"}, {"name": "activation_27", "inbound_nodes": [[["add_13", 0, 0, {}]]], "config": {"name": "activation_27", "dtype": "float32", "trainable": true, "activation": "relu"}, "class_name": "Activation"}, {"name": "conv2d_28", "inbound_nodes": [[["activation_27", 0, 0, {}]]], "config": {"padding": "same", "bias_constraint": null, "kernel_initializer": {"config": {"mode": "fan_avg", "scale": 1.0, "dtype": "float32", "distribution": "uniform", "seed": null}, "class_name": "VarianceScaling"}, "trainable": true, "data_format": "channels_first", "kernel_constraint": null, "activity_regularizer": null, "bias_regularizer": null, "dilation_rate": [1, 1], "name": "conv2d_28", "use_bias": true, "bias_initializer": {"config": {"dtype": "float32"}, "class_name": "Zeros"}, "kernel_regularizer": {"config": {"l1": 0.0, "l2": 9.999999747378752e-05}, "class_name": "L1L2"}, "strides": [1, 1], "dtype": "float32", "filters": 128, "kernel_size": [3, 3], "activation": "linear"}, "class_name": "Conv2D"}, {"name": "batch_normalization_28", "inbound_nodes": [[["conv2d_28", 0, 0, {}]]], "config": {"beta_constraint": null, "axis": 1, "scale": true, "moving_variance_initializer": {"config": {"dtype": "float32"}, "class_name": "Ones"}, "trainable": true, "beta_regularizer": null, "beta_initializer": {"config": {"dtype": "float32"}, "class_name": "Zeros"}, "gamma_constraint": null, "moving_mean_initializer": {"config": {"dtype": "float32"}, "class_name": "Zeros"}, "name": "batch_normalization_28", "gamma_regularizer": null, "center": true, "gamma_initializer": {"config": {"dtype": "float32"}, "class_name": "Ones"}, "dtype": "float32", "epsilon": 0.001, "momentum": 0.99}, "class_name": "BatchNormalization"}, {"name": "activation_28", "inbound_nodes": [[["batch_normalization_28", 0, 0, {}]]], "config": {"name": "activation_28", "dtype": "float32", "trainable": true, "activation": "relu"}, "class_name": "Activation"}, {"name": "conv2d_29", "inbound_nodes": [[["activation_28", 0, 0, {}]]], "config": {"padding": "same", "bias_constraint": null, "kernel_initializer": {"config": {"mode": "fan_avg", "scale": 1.0, "dtype": "float32", "distribution": "uniform", "seed": null}, "class_name": "VarianceScaling"}, "trainable": true, "data_format": "channels_first", "kernel_constraint": null, "activity_regularizer": null, "bias_regularizer": null, "dilation_rate": [1, 1], "name": "conv2d_29", "use_bias": true, "bias_initializer": {"config": {"dtype": "float32"}, "class_name": "Zeros"}, "kernel_regularizer": {"config": {"l1": 0.0, "l2": 9.999999747378752e-05}, "class_name": "L1L2"}, "strides": [1, 1], "dtype": "float32", "filters": 128, "kernel_size": [3, 3], "activation": "linear"}, "class_name": "Conv2D"}, {"name": "batch_normalization_29", "inbound_nodes": [[["conv2d_29", 0, 0, {}]]], "config": {"beta_constraint": null, "axis": 1, "scale": true, "moving_variance_initializer": {"config": {"dtype": "float32"}, "class_name": "Ones"}, "trainable": true, "beta_regularizer": null, "beta_initializer": {"config": {"dtype": "float32"}, "class_name": "Zeros"}, "gamma_constraint": null, "moving_mean_initializer": {"config": {"dtype": "float32"}, "class_name": "Zeros"}, "name": "batch_normalization_29", "gamma_regularizer": null, "center": true, "gamma_initializer": {"config": {"dtype": "float32"}, "class_name": "Ones"}, "dtype": "float32", "epsilon": 0.001, "momentum": 0.99}, "class_name": "BatchNormalization"}, {"name": "add_14", "inbound_nodes": [[["activation_27", 0, 0, {}], ["batch_normalization_29", 0, 0, {}]]], "config": {"name": "add_14", "dtype": "float32", "trainable": true}, "class_name": "Add"}, {"name": "activation_29", "inbound_nodes": [[["add_14", 0, 0, {}]]], "config": {"name": "activation_29", "dtype": "float32", "trainable": true, "activation": "relu"}, "class_name": "Activation"}, {"name": "conv2d_30", "inbound_nodes": [[["activation_29", 0, 0, {}]]], "config": {"padding": "same", "bias_constraint": null, "kernel_initializer": {"config": {"mode": "fan_avg", "scale": 1.0, "dtype": "float32", "distribution": "uniform", "seed": null}, "class_name": "VarianceScaling"}, "trainable": true, "data_format": "channels_first", "kernel_constraint": null, "activity_regularizer": null, "bias_regularizer": null, "dilation_rate": [1, 1], "name": "conv2d_30", "use_bias": true, "bias_initializer": {"config": {"dtype": "float32"}, "class_name": "Zeros"}, "kernel_regularizer": {"config": {"l1": 0.0, "l2": 9.999999747378752e-05}, "class_name": "L1L2"}, "strides": [1, 1], "dtype": "float32", "filters": 128, "kernel_size": [3, 3], "activation": "linear"}, "class_name": "Conv2D"}, {"name": "batch_normalization_30", "inbound_nodes": [[["conv2d_30", 0, 0, {}]]], "config": {"beta_constraint": null, "axis": 1, "scale": true, "moving_variance_initializer": {"config": {"dtype": "float32"}, "class_name": "Ones"}, "trainable": true, "beta_regularizer": null, "beta_initializer": {"config": {"dtype": "float32"}, "class_name": "Zeros"}, "gamma_constraint": null, "moving_mean_initializer": {"config": {"dtype": "float32"}, "class_name": "Zeros"}, "name": "batch_normalization_30", "gamma_regularizer": null, "center": true, "gamma_initializer": {"config": {"dtype": "float32"}, "class_name": "Ones"}, "dtype": "float32", "epsilon": 0.001, "momentum": 0.99}, "class_name": "BatchNormalization"}, {"name": "activation_30", "inbound_nodes": [[["batch_normalization_30", 0, 0, {}]]], "config": {"name": "activation_30", "dtype": "float32", "trainable": true, "activation": "relu"}, "class_name": "Activation"}, {"name": "conv2d_31", "inbound_nodes": [[["activation_30", 0, 0, {}]]], "config": {"padding": "same", "bias_constraint": null, "kernel_initializer": {"config": {"mode": "fan_avg", "scale": 1.0, "dtype": "float32", "distribution": "uniform", "seed": null}, "class_name": "VarianceScaling"}, "trainable": true, "data_format": "channels_first", "kernel_constraint": null, "activity_regularizer": null, "bias_regularizer": null, "dilation_rate": [1, 1], "name": "conv2d_31", "use_bias": true, "bias_initializer": {"config": {"dtype": "float32"}, "class_name": "Zeros"}, "kernel_regularizer": {"config": {"l1": 0.0, "l2": 9.999999747378752e-05}, "class_name": "L1L2"}, "strides": [1, 1], "dtype": "float32", "filters": 128, "kernel_size": [3, 3], "activation": "linear"}, "class_name": "Conv2D"}, {"name": "batch_normalization_31", "inbound_nodes": [[["conv2d_31", 0, 0, {}]]], "config": {"beta_constraint": null, "axis": 1, "scale": true, "moving_variance_initializer": {"config": {"dtype": "float32"}, "class_name": "Ones"}, "trainable": true, "beta_regularizer": null, "beta_initializer": {"config": {"dtype": "float32"}, "class_name": "Zeros"}, "gamma_constraint": null, "moving_mean_initializer": {"config": {"dtype": "float32"}, "class_name": "Zeros"}, "name": "batch_normalization_31", "gamma_regularizer": null, "center": true, "gamma_initializer": {"config": {"dtype": "float32"}, "class_name": "Ones"}, "dtype": "float32", "epsilon": 0.001, "momentum": 0.99}, "class_name": "BatchNormalization"}, {"name": "add_15", "inbound_nodes": [[["activation_29", 0, 0, {}], ["batch_normalization_31", 0, 0, {}]]], "config": {"name": "add_15", "dtype": "float32", "trainable": true}, "class_name": "Add"}, {"name": "activation_31", "inbound_nodes": [[["add_15", 0, 0, {}]]], "config": {"name": "activation_31", "dtype": "float32", "trainable": true, "activation": "relu"}, "class_name": "Activation"}, {"name": "conv2d_32", "inbound_nodes": [[["activation_31", 0, 0, {}]]], "config": {"padding": "same", "bias_constraint": null, "kernel_initializer": {"config": {"mode": "fan_avg", "scale": 1.0, "dtype": "float32", "distribution": "uniform", "seed": null}, "class_name": "VarianceScaling"}, "trainable": true, "data_format": "channels_first", "kernel_constraint": null, "activity_regularizer": null, "bias_regularizer": null, "dilation_rate": [1, 1], "name": "conv2d_32", "use_bias": true, "bias_initializer": {"config": {"dtype": "float32"}, "class_name": "Zeros"}, "kernel_regularizer": {"config": {"l1": 0.0, "l2": 9.999999747378752e-05}, "class_name": "L1L2"}, "strides": [1, 1], "dtype": "float32", "filters": 128, "kernel_size": [3, 3], "activation": "linear"}, "class_name": "Conv2D"}, {"name": "batch_normalization_32", "inbound_nodes": [[["conv2d_32", 0, 0, {}]]], "config": {"beta_constraint": null, "axis": 1, "scale": true, "moving_variance_initializer": {"config": {"dtype": "float32"}, "class_name": "Ones"}, "trainable": true, "beta_regularizer": null, "beta_initializer": {"config": {"dtype": "float32"}, "class_name": "Zeros"}, "gamma_constraint": null, "moving_mean_initializer": {"config": {"dtype": "float32"}, "class_name": "Zeros"}, "name": "batch_normalization_32", "gamma_regularizer": null, "center": true, "gamma_initializer": {"config": {"dtype": "float32"}, "class_name": "Ones"}, "dtype": "float32", "epsilon": 0.001, "momentum": 0.99}, "class_name": "BatchNormalization"}, {"name": "activation_32", "inbound_nodes": [[["batch_normalization_32", 0, 0, {}]]], "config": {"name": "activation_32", "dtype": "float32", "trainable": true, "activation": "relu"}, "class_name": "Activation"}, {"name": "conv2d_33", "inbound_nodes": [[["activation_32", 0, 0, {}]]], "config": {"padding": "same", "bias_constraint": null, "kernel_initializer": {"config": {"mode": "fan_avg", "scale": 1.0, "dtype": "float32", "distribution": "uniform", "seed": null}, "class_name": "VarianceScaling"}, "trainable": true, "data_format": "channels_first", "kernel_constraint": null, "activity_regularizer": null, "bias_regularizer": null, "dilation_rate": [1, 1], "name": "conv2d_33", "use_bias": true, "bias_initializer": {"config": {"dtype": "float32"}, "class_name": "Zeros"}, "kernel_regularizer": {"config": {"l1": 0.0, "l2": 9.999999747378752e-05}, "class_name": "L1L2"}, "strides": [1, 1], "dtype": "float32", "filters": 128, "kernel_size": [3, 3], "activation": "linear"}, "class_name": "Conv2D"}, {"name": "batch_normalization_33", "inbound_nodes": [[["conv2d_33", 0, 0, {}]]], "config": {"beta_constraint": null, "axis": 1, "scale": true, "moving_variance_initializer": {"config": {"dtype": "float32"}, "class_name": "Ones"}, "trainable": true, "beta_regularizer": null, "beta_initializer": {"config": {"dtype": "float32"}, "class_name": "Zeros"}, "gamma_constraint": null, "moving_mean_initializer": {"config": {"dtype": "float32"}, "class_name": "Zeros"}, "name": "batch_normalization_33", "gamma_regularizer": null, "center": true, "gamma_initializer": {"config": {"dtype": "float32"}, "class_name": "Ones"}, "dtype": "float32", "epsilon": 0.001, "momentum": 0.99}, "class_name": "BatchNormalization"}, {"name": "add_16", "inbound_nodes": [[["activation_31", 0, 0, {}], ["batch_normalization_33", 0, 0, {}]]], "config": {"name": "add_16", "dtype": "float32", "trainable": true}, "class_name": "Add"}, {"name": "activation_33", "inbound_nodes": [[["add_16", 0, 0, {}]]], "config": {"name": "activation_33", "dtype": "float32", "trainable": true, "activation": "relu"}, "class_name": "Activation"}, {"name": "conv2d_34", "inbound_nodes": [[["activation_33", 0, 0, {}]]], "config": {"padding": "same", "bias_constraint": null, "kernel_initializer": {"config": {"mode": "fan_avg", "scale": 1.0, "dtype": "float32", "distribution": "uniform", "seed": null}, "class_name": "VarianceScaling"}, "trainable": true, "data_format": "channels_first", "kernel_constraint": null, "activity_regularizer": null, "bias_regularizer": null, "dilation_rate": [1, 1], "name": "conv2d_34", "use_bias": true, "bias_initializer": {"config": {"dtype": "float32"}, "class_name": "Zeros"}, "kernel_regularizer": {"config": {"l1": 0.0, "l2": 9.999999747378752e-05}, "class_name": "L1L2"}, "strides": [1, 1], "dtype": "float32", "filters": 128, "kernel_size": [3, 3], "activation": "linear"}, "class_name": "Conv2D"}, {"name": "batch_normalization_34", "inbound_nodes": [[["conv2d_34", 0, 0, {}]]], "config": {"beta_constraint": null, "axis": 1, "scale": true, "moving_variance_initializer": {"config": {"dtype": "float32"}, "class_name": "Ones"}, "trainable": true, "beta_regularizer": null, "beta_initializer": {"config": {"dtype": "float32"}, "class_name": "Zeros"}, "gamma_constraint": null, "moving_mean_initializer": {"config": {"dtype": "float32"}, "class_name": "Zeros"}, "name": "batch_normalization_34", "gamma_regularizer": null, "center": true, "gamma_initializer": {"config": {"dtype": "float32"}, "class_name": "Ones"}, "dtype": "float32", "epsilon": 0.001, "momentum": 0.99}, "class_name": "BatchNormalization"}, {"name": "activation_34", "inbound_nodes": [[["batch_normalization_34", 0, 0, {}]]], "config": {"name": "activation_34", "dtype": "float32", "trainable": true, "activation": "relu"}, "class_name": "Activation"}, {"name": "conv2d_35", "inbound_nodes": [[["activation_34", 0, 0, {}]]], "config": {"padding": "same", "bias_constraint": null, "kernel_initializer": {"config": {"mode": "fan_avg", "scale": 1.0, "dtype": "float32", "distribution": "uniform", "seed": null}, "class_name": "VarianceScaling"}, "trainable": true, "data_format": "channels_first", "kernel_constraint": null, "activity_regularizer": null, "bias_regularizer": null, "dilation_rate": [1, 1], "name": "conv2d_35", "use_bias": true, "bias_initializer": {"config": {"dtype": "float32"}, "class_name": "Zeros"}, "kernel_regularizer": {"config": {"l1": 0.0, "l2": 9.999999747378752e-05}, "class_name": "L1L2"}, "strides": [1, 1], "dtype": "float32", "filters": 128, "kernel_size": [3, 3], "activation": "linear"}, "class_name": "Conv2D"}, {"name": "batch_normalization_35", "inbound_nodes": [[["conv2d_35", 0, 0, {}]]], "config": {"beta_constraint": null, "axis": 1, "scale": true, "moving_variance_initializer": {"config": {"dtype": "float32"}, "class_name": "Ones"}, "trainable": true, "beta_regularizer": null, "beta_initializer": {"config": {"dtype": "float32"}, "class_name": "Zeros"}, "gamma_constraint": null, "moving_mean_initializer": {"config": {"dtype": "float32"}, "class_name": "Zeros"}, "name": "batch_normalization_35", "gamma_regularizer": null, "center": true, "gamma_initializer": {"config": {"dtype": "float32"}, "class_name": "Ones"}, "dtype": "float32", "epsilon": 0.001, "momentum": 0.99}, "class_name": "BatchNormalization"}, {"name": "add_17", "inbound_nodes": [[["activation_33", 0, 0, {}], ["batch_normalization_35", 0, 0, {}]]], "config": {"name": "add_17", "dtype": "float32", "trainable": true}, "class_name": "Add"}, {"name": "activation_35", "inbound_nodes": [[["add_17", 0, 0, {}]]], "config": {"name": "activation_35", "dtype": "float32", "trainable": true, "activation": "relu"}, "class_name": "Activation"}, {"name": "conv2d_36", "inbound_nodes": [[["activation_35", 0, 0, {}]]], "config": {"padding": "same", "bias_constraint": null, "kernel_initializer": {"config": {"mode": "fan_avg", "scale": 1.0, "dtype": "float32", "distribution": "uniform", "seed": null}, "class_name": "VarianceScaling"}, "trainable": true, "data_format": "channels_first", "kernel_constraint": null, "activity_regularizer": null, "bias_regularizer": null, "dilation_rate": [1, 1], "name": "conv2d_36", "use_bias": true, "bias_initializer": {"config": {"dtype": "float32"}, "class_name": "Zeros"}, "kernel_regularizer": {"config": {"l1": 0.0, "l2": 9.999999747378752e-05}, "class_name": "L1L2"}, "strides": [1, 1], "dtype": "float32", "filters": 128, "kernel_size": [3, 3], "activation": "linear"}, "class_name": "Conv2D"}, {"name": "batch_normalization_36", "inbound_nodes": [[["conv2d_36", 0, 0, {}]]], "config": {"beta_constraint": null, "axis": 1, "scale": true, "moving_variance_initializer": {"config": {"dtype": "float32"}, "class_name": "Ones"}, "trainable": true, "beta_regularizer": null, "beta_initializer": {"config": {"dtype": "float32"}, "class_name": "Zeros"}, "gamma_constraint": null, "moving_mean_initializer": {"config": {"dtype": "float32"}, "class_name": "Zeros"}, "name": "batch_normalization_36", "gamma_regularizer": null, "center": true, "gamma_initializer": {"config": {"dtype": "float32"}, "class_name": "Ones"}, "dtype": "float32", "epsilon": 0.001, "momentum": 0.99}, "class_name": "BatchNormalization"}, {"name": "activation_36", "inbound_nodes": [[["batch_normalization_36", 0, 0, {}]]], "config": {"name": "activation_36", "dtype": "float32", "trainable": true, "activation": "relu"}, "class_name": "Activation"}, {"name": "conv2d_37", "inbound_nodes": [[["activation_36", 0, 0, {}]]], "config": {"padding": "same", "bias_constraint": null, "kernel_initializer": {"config": {"mode": "fan_avg", "scale": 1.0, "dtype": "float32", "distribution": "uniform", "seed": null}, "class_name": "VarianceScaling"}, "trainable": true, "data_format": "channels_first", "kernel_constraint": null, "activity_regularizer": null, "bias_regularizer": null, "dilation_rate": [1, 1], "name": "conv2d_37", "use_bias": true, "bias_initializer": {"config": {"dtype": "float32"}, "class_name": "Zeros"}, "kernel_regularizer": {"config": {"l1": 0.0, "l2": 9.999999747378752e-05}, "class_name": "L1L2"}, "strides": [1, 1], "dtype": "float32", "filters": 128, "kernel_size": [3, 3], "activation": "linear"}, "class_name": "Conv2D"}, {"name": "batch_normalization_37", "inbound_nodes": [[["conv2d_37", 0, 0, {}]]], "config": {"beta_constraint": null, "axis": 1, "scale": true, "moving_variance_initializer": {"config": {"dtype": "float32"}, "class_name": "Ones"}, "trainable": true, "beta_regularizer": null, "beta_initializer": {"config": {"dtype": "float32"}, "class_name": "Zeros"}, "gamma_constraint": null, "moving_mean_initializer": {"config": {"dtype": "float32"}, "class_name": "Zeros"}, "name": "batch_normalization_37", "gamma_regularizer": null, "center": true, "gamma_initializer": {"config": {"dtype": "float32"}, "class_name": "Ones"}, "dtype": "float32", "epsilon": 0.001, "momentum": 0.99}, "class_name": "BatchNormalization"}, {"name": "add_18", "inbound_nodes": [[["activation_35", 0, 0, {}], ["batch_normalization_37", 0, 0, {}]]], "config": {"name": "add_18", "dtype": "float32", "trainable": true}, "class_name": "Add"}, {"name": "activation_37", "inbound_nodes": [[["add_18", 0, 0, {}]]], "config": {"name": "activation_37", "dtype": "float32", "trainable": true, "activation": "relu"}, "class_name": "Activation"}, {"name": "conv2d_38", "inbound_nodes": [[["activation_37", 0, 0, {}]]], "config": {"padding": "same", "bias_constraint": null, "kernel_initializer": {"config": {"mode": "fan_avg", "scale": 1.0, "dtype": "float32", "distribution": "uniform", "seed": null}, "class_name": "VarianceScaling"}, "trainable": true, "data_format": "channels_first", "kernel_constraint": null, "activity_regularizer": null, "bias_regularizer": null, "dilation_rate": [1, 1], "name": "conv2d_38", "use_bias": true, "bias_initializer": {"config": {"dtype": "float32"}, "class_name": "Zeros"}, "kernel_regularizer": {"config": {"l1": 0.0, "l2": 9.999999747378752e-05}, "class_name": "L1L2"}, "strides": [1, 1], "dtype": "float32", "filters": 128, "kernel_size": [3, 3], "activation": "linear"}, "class_name": "Conv2D"}, {"name": "batch_normalization_38", "inbound_nodes": [[["conv2d_38", 0, 0, {}]]], "config": {"beta_constraint": null, "axis": 1, "scale": true, "moving_variance_initializer": {"config": {"dtype": "float32"}, "class_name": "Ones"}, "trainable": true, "beta_regularizer": null, "beta_initializer": {"config": {"dtype": "float32"}, "class_name": "Zeros"}, "gamma_constraint": null, "moving_mean_initializer": {"config": {"dtype": "float32"}, "class_name": "Zeros"}, "name": "batch_normalization_38", "gamma_regularizer": null, "center": true, "gamma_initializer": {"config": {"dtype": "float32"}, "class_name": "Ones"}, "dtype": "float32", "epsilon": 0.001, "momentum": 0.99}, "class_name": "BatchNormalization"}, {"name": "activation_38", "inbound_nodes": [[["batch_normalization_38", 0, 0, {}]]], "config": {"name": "activation_38", "dtype": "float32", "trainable": true, "activation": "relu"}, "class_name": "Activation"}, {"name": "conv2d_39", "inbound_nodes": [[["activation_38", 0, 0, {}]]], "config": {"padding": "same", "bias_constraint": null, "kernel_initializer": {"config": {"mode": "fan_avg", "scale": 1.0, "dtype": "float32", "distribution": "uniform", "seed": null}, "class_name": "VarianceScaling"}, "trainable": true, "data_format": "channels_first", "kernel_constraint": null, "activity_regularizer": null, "bias_regularizer": null, "dilation_rate": [1, 1], "name": "conv2d_39", "use_bias": true, "bias_initializer": {"config": {"dtype": "float32"}, "class_name": "Zeros"}, "kernel_regularizer": {"config": {"l1": 0.0, "l2": 9.999999747378752e-05}, "class_name": "L1L2"}, "strides": [1, 1], "dtype": "float32", "filters": 128, "kernel_size": [3, 3], "activation": "linear"}, "class_name": "Conv2D"}, {"name": "batch_normalization_39", "inbound_nodes": [[["conv2d_39", 0, 0, {}]]], "config": {"beta_constraint": null, "axis": 1, "scale": true, "moving_variance_initializer": {"config": {"dtype": "float32"}, "class_name": "Ones"}, "trainable": true, "beta_regularizer": null, "beta_initializer": {"config": {"dtype": "float32"}, "class_name": "Zeros"}, "gamma_constraint": null, "moving_mean_initializer": {"config": {"dtype": "float32"}, "class_name": "Zeros"}, "name": "batch_normalization_39", "gamma_regularizer": null, "center": true, "gamma_initializer": {"config": {"dtype": "float32"}, "class_name": "Ones"}, "dtype": "float32", "epsilon": 0.001, "momentum": 0.99}, "class_name": "BatchNormalization"}, {"name": "add_19", "inbound_nodes": [[["activation_37", 0, 0, {}], ["batch_normalization_39", 0, 0, {}]]], "config": {"name": "add_19", "dtype": "float32", "trainable": true}, "class_name": "Add"}, {"name": "activation_39", "inbound_nodes": [[["add_19", 0, 0, {}]]], "config": {"name": "activation_39", "dtype": "float32", "trainable": true, "activation": "relu"}, "class_name": "Activation"}, {"name": "conv2d_40", "inbound_nodes": [[["activation_39", 0, 0, {}]]], "config": {"padding": "same", "bias_constraint": null, "kernel_initializer": {"config": {"mode": "fan_avg", "scale": 1.0, "dtype": "float32", "distribution": "uniform", "seed": null}, "class_name": "VarianceScaling"}, "trainable": true, "data_format": "channels_first", "kernel_constraint": null, "activity_regularizer": null, "bias_regularizer": null, "dilation_rate": [1, 1], "name": "conv2d_40", "use_bias": true, "bias_initializer": {"config": {"dtype": "float32"}, "class_name": "Zeros"}, "kernel_regularizer": {"config": {"l1": 0.0, "l2": 9.999999747378752e-05}, "class_name": "L1L2"}, "strides": [1, 1], "dtype": "float32", "filters": 128, "kernel_size": [3, 3], "activation": "linear"}, "class_name": "Conv2D"}, {"name": "batch_normalization_40", "inbound_nodes": [[["conv2d_40", 0, 0, {}]]], "config": {"beta_constraint": null, "axis": 1, "scale": true, "moving_variance_initializer": {"config": {"dtype": "float32"}, "class_name": "Ones"}, "trainable": true, "beta_regularizer": null, "beta_initializer": {"config": {"dtype": "float32"}, "class_name": "Zeros"}, "gamma_constraint": null, "moving_mean_initializer": {"config": {"dtype": "float32"}, "class_name": "Zeros"}, "name": "batch_normalization_40", "gamma_regularizer": null, "center": true, "gamma_initializer": {"config": {"dtype": "float32"}, "class_name": "Ones"}, "dtype": "float32", "epsilon": 0.001, "momentum": 0.99}, "class_name": "BatchNormalization"}, {"name": "activation_40", "inbound_nodes": [[["batch_normalization_40", 0, 0, {}]]], "config": {"name": "activation_40", "dtype": "float32", "trainable": true, "activation": "relu"}, "class_name": "Activation"}, {"name": "conv2d_41", "inbound_nodes": [[["activation_40", 0, 0, {}]]], "config": {"padding": "same", "bias_constraint": null, "kernel_initializer": {"config": {"mode": "fan_avg", "scale": 1.0, "dtype": "float32", "distribution": "uniform", "seed": null}, "class_name": "VarianceScaling"}, "trainable": true, "data_format": "channels_first", "kernel_constraint": null, "activity_regularizer": null, "bias_regularizer": null, "dilation_rate": [1, 1], "name": "conv2d_41", "use_bias": true, "bias_initializer": {"config": {"dtype": "float32"}, "class_name": "Zeros"}, "kernel_regularizer": {"config": {"l1": 0.0, "l2": 9.999999747378752e-05}, "class_name": "L1L2"}, "strides": [1, 1], "dtype": "float32", "filters": 128, "kernel_size": [3, 3], "activation": "linear"}, "class_name": "Conv2D"}, {"name": "batch_normalization_41", "inbound_nodes": [[["conv2d_41", 0, 0, {}]]], "config": {"beta_constraint": null, "axis": 1, "scale": true, "moving_variance_initializer": {"config": {"dtype": "float32"}, "class_name": "Ones"}, "trainable": true, "beta_regularizer": null, "beta_initializer": {"config": {"dtype": "float32"}, "class_name": "Zeros"}, "gamma_constraint": null, "moving_mean_initializer": {"config": {"dtype": "float32"}, "class_name": "Zeros"}, "name": "batch_normalization_41", "gamma_regularizer": null, "center": true, "gamma_initializer": {"config": {"dtype": "float32"}, "class_name": "Ones"}, "dtype": "float32", "epsilon": 0.001, "momentum": 0.99}, "class_name": "BatchNormalization"}, {"name": "add_20", "inbound_nodes": [[["activation_39", 0, 0, {}], ["batch_normalization_41", 0, 0, {}]]], "config": {"name": "add_20", "dtype": "float32", "trainable": true}, "class_name": "Add"}, {"name": "activation_41", "inbound_nodes": [[["add_20", 0, 0, {}]]], "config": {"name": "activation_41", "dtype": "float32", "trainable": true, "activation": "relu"}, "class_name": "Activation"}, {"name": "conv2d_43", "inbound_nodes": [[["activation_41", 0, 0, {}]]], "config": {"padding": "valid", "bias_constraint": null, "kernel_initializer": {"config": {"mode": "fan_avg", "scale": 1.0, "dtype": "float32", "distribution": "uniform", "seed": null}, "class_name": "VarianceScaling"}, "trainable": true, "data_format": "channels_first", "kernel_constraint": null, "activity_regularizer": null, "bias_regularizer": null, "dilation_rate": [1, 1], "name": "conv2d_43", "use_bias": true, "bias_initializer": {"config": {"dtype": "float32"}, "class_name": "Zeros"}, "kernel_regularizer": {"config": {"l1": 0.0, "l2": 9.999999747378752e-05}, "class_name": "L1L2"}, "strides": [1, 1], "dtype": "float32", "filters": 32, "kernel_size": [1, 1], "activation": "linear"}, "class_name": "Conv2D"}, {"name": "batch_normalization_43", "inbound_nodes": [[["conv2d_43", 0, 0, {}]]], "config": {"beta_constraint": null, "axis": 1, "scale": true, "moving_variance_initializer": {"config": {"dtype": "float32"}, "class_name": "Ones"}, "trainable": true, "beta_regularizer": null, "beta_initializer": {"config": {"dtype": "float32"}, "class_name": "Zeros"}, "gamma_constraint": null, "moving_mean_initializer": {"config": {"dtype": "float32"}, "class_name": "Zeros"}, "name": "batch_normalization_43", "gamma_regularizer": null, "center": true, "gamma_initializer": {"config": {"dtype": "float32"}, "class_name": "Ones"}, "dtype": "float32", "epsilon": 0.001, "momentum": 0.99}, "class_name": "BatchNormalization"}, {"name": "activation_43", "inbound_nodes": [[["batch_normalization_43", 0, 0, {}]]], "config": {"name": "activation_43", "dtype": "float32", "trainable": true, "activation": "relu"}, "class_name": "Activation"}, {"name": "conv2d_42", "inbound_nodes": [[["activation_41", 0, 0, {}]]], "config": {"padding": "valid", "bias_constraint": null, "kernel_initializer": {"config": {"mode": "fan_avg", "scale": 1.0, "dtype": "float32", "distribution": "uniform", "seed": null}, "class_name": "VarianceScaling"}, "trainable": true, "data_format": "channels_first", "kernel_constraint": null, "activity_regularizer": null, "bias_regularizer": null, "dilation_rate": [1, 1], "name": "conv2d_42", "use_bias": true, "bias_initializer": {"config": {"dtype": "float32"}, "class_name": "Zeros"}, "kernel_regularizer": {"config": {"l1": 0.0, "l2": 9.999999747378752e-05}, "class_name": "L1L2"}, "strides": [1, 1], "dtype": "float32", "filters": 32, "kernel_size": [1, 1], "activation": "linear"}, "class_name": "Conv2D"}, {"name": "flatten_2", "inbound_nodes": [[["activation_43", 0, 0, {}]]], "config": {"name": "flatten_2", "dtype": "float32", "trainable": true}, "class_name": "Flatten"}, {"name": "batch_normalization_42", "inbound_nodes": [[["conv2d_42", 0, 0, {}]]], "config": {"beta_constraint": null, "axis": 1, "scale": true, "moving_variance_initializer": {"config": {"dtype": "float32"}, "class_name": "Ones"}, "trainable": true, "beta_regularizer": null, "beta_initializer": {"config": {"dtype": "float32"}, "class_name": "Zeros"}, "gamma_constraint": null, "moving_mean_initializer": {"config": {"dtype": "float32"}, "class_name": "Zeros"}, "name": "batch_normalization_42", "gamma_regularizer": null, "center": true, "gamma_initializer": {"config": {"dtype": "float32"}, "class_name": "Ones"}, "dtype": "float32", "epsilon": 0.001, "momentum": 0.99}, "class_name": "BatchNormalization"}, {"name": "dense_1", "inbound_nodes": [[["flatten_2", 0, 0, {}]]], "config": {"name": "dense_1", "bias_constraint": null, "kernel_initializer": {"config": {"mode": "fan_avg", "scale": 1.0, "dtype": "float32", "distribution": "uniform", "seed": null}, "class_name": "VarianceScaling"}, "trainable": true, "units": 256, "bias_regularizer": null, "activity_regularizer": null, "bias_initializer": {"config": {"dtype": "float32"}, "class_name": "Zeros"}, "use_bias": true, "kernel_constraint": null, "kernel_regularizer": {"config": {"l1": 0.0, "l2": 9.999999747378752e-05}, "class_name": "L1L2"}, "dtype": "float32", "activation": "linear"}, "class_name": "Dense"}, {"name": "activation_42", "inbound_nodes": [[["batch_normalization_42", 0, 0, {}]]], "config": {"name": "activation_42", "dtype": "float32", "trainable": true, "activation": "relu"}, "class_name": "Activation"}, {"name": "batch_normalization_44", "inbound_nodes": [[["dense_1", 0, 0, {}]]], "config": {"beta_constraint": null, "axis": 1, "scale": true, "moving_variance_initializer": {"config": {"dtype": "float32"}, "class_name": "Ones"}, "trainable": true, "beta_regularizer": null, "beta_initializer": {"config": {"dtype": "float32"}, "class_name": "Zeros"}, "gamma_constraint": null, "moving_mean_initializer": {"config": {"dtype": "float32"}, "class_name": "Zeros"}, "name": "batch_normalization_44", "gamma_regularizer": null, "center": true, "gamma_initializer": {"config": {"dtype": "float32"}, "class_name": "Ones"}, "dtype": "float32", "epsilon": 0.001, "momentum": 0.99}, "class_name": "BatchNormalization"}, {"name": "flatten_1", "inbound_nodes": [[["activation_42", 0, 0, {}]]], "config": {"name": "flatten_1", "dtype": "float32", "trainable": true}, "class_name": "Flatten"}, {"name": "activation_44", "inbound_nodes": [[["batch_normalization_44", 0, 0, {}]]], "config": {"name": "activation_44", "dtype": "float32", "trainable": true, "activation": "relu"}, "class_name": "Activation"}, {"name": "policy_out", "inbound_nodes": [[["flatten_1", 0, 0, {}]]], "config": {"name": "policy_out", "bias_constraint": null, "kernel_initializer": {"config": {"mode": "fan_avg", "scale": 1.0, "dtype": "float32", "distribution": "uniform", "seed": null}, "class_name": "VarianceScaling"}, "trainable": true, "units": 7, "bias_regularizer": null, "activity_regularizer": null, "bias_initializer": {"config": {"dtype": "float32"}, "class_name": "Zeros"}, "use_bias": true, "kernel_constraint": null, "kernel_regularizer": {"config": {"l1": 0.0, "l2": 9.999999747378752e-05}, "class_name": "L1L2"}, "dtype": "float32", "activation": "softmax"}, "class_name": "Dense"}, {"name": "value_out", "inbound_nodes": [[["activation_44", 0, 0, {}]]], "config": {"name": "value_out", "bias_constraint": null, "kernel_initializer": {"config": {"mode": "fan_avg", "scale": 1.0, "dtype": "float32", "distribution": "uniform", "seed": null}, "class_name": "VarianceScaling"}, "trainable": true, "units": 1, "bias_regularizer": null, "activity_regularizer": null, "bias_initializer": {"config": {"dtype": "float32"}, "class_name": "Zeros"}, "use_bias": true, "kernel_constraint": null, "kernel_regularizer": {"config": {"l1": 0.0, "l2": 9.999999747378752e-05}, "class_name": "L1L2"}, "dtype": "float32", "activation": "tanh"}, "class_name": "Dense"}]}, "class_name": "Model"}}, "weightsManifest": [{"paths": ["group1-shard1of1"], "weights": [{"name": "batch_normalization_1/gamma", "shape": [128], "dtype": "float32"}, {"name": "batch_normalization_1/beta", "shape": [128], "dtype": "float32"}, {"name": "batch_normalization_1/moving_mean", "shape": [128], "dtype": "float32"}, {"name": "batch_normalization_1/moving_variance", "shape": [128], "dtype": "float32"}]}, {"paths": ["group2-shard1of1"], "weights": [{"name": "batch_normalization_10/gamma", "shape": [128], "dtype": "float32"}, {"name": "batch_normalization_10/beta", "shape": [128], "dtype": "float32"}, {"name": "batch_normalization_10/moving_mean", "shape": [128], "dtype": "float32"}, {"name": "batch_normalization_10/moving_variance", "shape": [128], "dtype": "float32"}]}, {"paths": ["group3-shard1of1"], "weights": [{"name": "batch_normalization_11/gamma", "shape": [128], "dtype": "float32"}, {"name": "batch_normalization_11/beta", "shape": [128], "dtype": "float32"}, {"name": "batch_normalization_11/moving_mean", "shape": [128], "dtype": "float32"}, {"name": "batch_normalization_11/moving_variance", "shape": [128], "dtype": "float32"}]}, {"paths": ["group4-shard1of1"], "weights": [{"name": "batch_normalization_12/gamma", "shape": [128], "dtype": "float32"}, {"name": "batch_normalization_12/beta", "shape": [128], "dtype": "float32"}, {"name": "batch_normalization_12/moving_mean", "shape": [128], "dtype": "float32"}, {"name": "batch_normalization_12/moving_variance", "shape": [128], "dtype": "float32"}]}, {"paths": ["group5-shard1of1"], "weights": [{"name": "batch_normalization_13/gamma", "shape": [128], "dtype": "float32"}, {"name": "batch_normalization_13/beta", "shape": [128], "dtype": "float32"}, {"name": "batch_normalization_13/moving_mean", "shape": [128], "dtype": "float32"}, {"name": "batch_normalization_13/moving_variance", "shape": [128], "dtype": "float32"}]}, {"paths": ["group6-shard1of1"], "weights": [{"name": "batch_normalization_14/gamma", "shape": [128], "dtype": "float32"}, {"name": "batch_normalization_14/beta", "shape": [128], "dtype": "float32"}, {"name": "batch_normalization_14/moving_mean", "shape": [128], "dtype": "float32"}, {"name": "batch_normalization_14/moving_variance", "shape": [128], "dtype": "float32"}]}, {"paths": ["group7-shard1of1"], "weights": [{"name": "batch_normalization_15/gamma", "shape": [128], "dtype": "float32"}, {"name": "batch_normalization_15/beta", "shape": [128], "dtype": "float32"}, {"name": "batch_normalization_15/moving_mean", "shape": [128], "dtype": "float32"}, {"name": "batch_normalization_15/moving_variance", "shape": [128], "dtype": "float32"}]}, {"paths": ["group8-shard1of1"], "weights": [{"name": "batch_normalization_16/gamma", "shape": [128], "dtype": "float32"}, {"name": "batch_normalization_16/beta", "shape": [128], "dtype": "float32"}, {"name": "batch_normalization_16/moving_mean", "shape": [128], "dtype": "float32"}, {"name": "batch_normalization_16/moving_variance", "shape": [128], "dtype": "float32"}]}, {"paths": ["group9-shard1of1"], "weights": [{"name": "batch_normalization_17/gamma", "shape": [128], "dtype": "float32"}, {"name": "batch_normalization_17/beta", "shape": [128], "dtype": "float32"}, {"name": "batch_normalization_17/moving_mean", "shape": [128], "dtype": "float32"}, {"name": "batch_normalization_17/moving_variance", "shape": [128], "dtype": "float32"}]}, {"paths": ["group10-shard1of1"], "weights": [{"name": "batch_normalization_18/gamma", "shape": [128], "dtype": "float32"}, {"name": "batch_normalization_18/beta", "shape": [128], "dtype": "float32"}, {"name": "batch_normalization_18/moving_mean", "shape": [128], "dtype": "float32"}, {"name": "batch_normalization_18/moving_variance", "shape": [128], "dtype": "float32"}]}, {"paths": ["group11-shard1of1"], "weights": [{"name": "batch_normalization_19/gamma", "shape": [128], "dtype": "float32"}, {"name": "batch_normalization_19/beta", "shape": [128], "dtype": "float32"}, {"name": "batch_normalization_19/moving_mean", "shape": [128], "dtype": "float32"}, {"name": "batch_normalization_19/moving_variance", "shape": [128], "dtype": "float32"}]}, {"paths": ["group12-shard1of1"], "weights": [{"name": "batch_normalization_2/gamma", "shape": [128], "dtype": "float32"}, {"name": "batch_normalization_2/beta", "shape": [128], "dtype": "float32"}, {"name": "batch_normalization_2/moving_mean", "shape": [128], "dtype": "float32"}, {"name": "batch_normalization_2/moving_variance", "shape": [128], "dtype": "float32"}]}, {"paths": ["group13-shard1of1"], "weights": [{"name": "batch_normalization_20/gamma", "shape": [128], "dtype": "float32"}, {"name": "batch_normalization_20/beta", "shape": [128], "dtype": "float32"}, {"name": "batch_normalization_20/moving_mean", "shape": [128], "dtype": "float32"}, {"name": "batch_normalization_20/moving_variance", "shape": [128], "dtype": "float32"}]}, {"paths": ["group14-shard1of1"], "weights": [{"name": "batch_normalization_21/gamma", "shape": [128], "dtype": "float32"}, {"name": "batch_normalization_21/beta", "shape": [128], "dtype": "float32"}, {"name": "batch_normalization_21/moving_mean", "shape": [128], "dtype": "float32"}, {"name": "batch_normalization_21/moving_variance", "shape": [128], "dtype": "float32"}]}, {"paths": ["group15-shard1of1"], "weights": [{"name": "batch_normalization_22/gamma", "shape": [128], "dtype": "float32"}, {"name": "batch_normalization_22/beta", "shape": [128], "dtype": "float32"}, {"name": "batch_normalization_22/moving_mean", "shape": [128], "dtype": "float32"}, {"name": "batch_normalization_22/moving_variance", "shape": [128], "dtype": "float32"}]}, {"paths": ["group16-shard1of1"], "weights": [{"name": "batch_normalization_23/gamma", "shape": [128], "dtype": "float32"}, {"name": "batch_normalization_23/beta", "shape": [128], "dtype": "float32"}, {"name": "batch_normalization_23/moving_mean", "shape": [128], "dtype": "float32"}, {"name": "batch_normalization_23/moving_variance", "shape": [128], "dtype": "float32"}]}, {"paths": ["group17-shard1of1"], "weights": [{"name": "batch_normalization_24/gamma", "shape": [128], "dtype": "float32"}, {"name": "batch_normalization_24/beta", "shape": [128], "dtype": "float32"}, {"name": "batch_normalization_24/moving_mean", "shape": [128], "dtype": "float32"}, {"name": "batch_normalization_24/moving_variance", "shape": [128], "dtype": "float32"}]}, {"paths": ["group18-shard1of1"], "weights": [{"name": "batch_normalization_25/gamma", "shape": [128], "dtype": "float32"}, {"name": "batch_normalization_25/beta", "shape": [128], "dtype": "float32"}, {"name": "batch_normalization_25/moving_mean", "shape": [128], "dtype": "float32"}, {"name": "batch_normalization_25/moving_variance", "shape": [128], "dtype": "float32"}]}, {"paths": ["group19-shard1of1"], "weights": [{"name": "batch_normalization_26/gamma", "shape": [128], "dtype": "float32"}, {"name": "batch_normalization_26/beta", "shape": [128], "dtype": "float32"}, {"name": "batch_normalization_26/moving_mean", "shape": [128], "dtype": "float32"}, {"name": "batch_normalization_26/moving_variance", "shape": [128], "dtype": "float32"}]}, {"paths": ["group20-shard1of1"], "weights": [{"name": "batch_normalization_27/gamma", "shape": [128], "dtype": "float32"}, {"name": "batch_normalization_27/beta", "shape": [128], "dtype": "float32"}, {"name": "batch_normalization_27/moving_mean", "shape": [128], "dtype": "float32"}, {"name": "batch_normalization_27/moving_variance", "shape": [128], "dtype": "float32"}]}, {"paths": ["group21-shard1of1"], "weights": [{"name": "batch_normalization_28/gamma", "shape": [128], "dtype": "float32"}, {"name": "batch_normalization_28/beta", "shape": [128], "dtype": "float32"}, {"name": "batch_normalization_28/moving_mean", "shape": [128], "dtype": "float32"}, {"name": "batch_normalization_28/moving_variance", "shape": [128], "dtype": "float32"}]}, {"paths": ["group22-shard1of1"], "weights": [{"name": "batch_normalization_29/gamma", "shape": [128], "dtype": "float32"}, {"name": "batch_normalization_29/beta", "shape": [128], "dtype": "float32"}, {"name": "batch_normalization_29/moving_mean", "shape": [128], "dtype": "float32"}, {"name": "batch_normalization_29/moving_variance", "shape": [128], "dtype": "float32"}]}, {"paths": ["group23-shard1of1"], "weights": [{"name": "batch_normalization_3/gamma", "shape": [128], "dtype": "float32"}, {"name": "batch_normalization_3/beta", "shape": [128], "dtype": "float32"}, {"name": "batch_normalization_3/moving_mean", "shape": [128], "dtype": "float32"}, {"name": "batch_normalization_3/moving_variance", "shape": [128], "dtype": "float32"}]}, {"paths": ["group24-shard1of1"], "weights": [{"name": "batch_normalization_30/gamma", "shape": [128], "dtype": "float32"}, {"name": "batch_normalization_30/beta", "shape": [128], "dtype": "float32"}, {"name": "batch_normalization_30/moving_mean", "shape": [128], "dtype": "float32"}, {"name": "batch_normalization_30/moving_variance", "shape": [128], "dtype": "float32"}]}, {"paths": ["group25-shard1of1"], "weights": [{"name": "batch_normalization_31/gamma", "shape": [128], "dtype": "float32"}, {"name": "batch_normalization_31/beta", "shape": [128], "dtype": "float32"}, {"name": "batch_normalization_31/moving_mean", "shape": [128], "dtype": "float32"}, {"name": "batch_normalization_31/moving_variance", "shape": [128], "dtype": "float32"}]}, {"paths": ["group26-shard1of1"], "weights": [{"name": "batch_normalization_32/gamma", "shape": [128], "dtype": "float32"}, {"name": "batch_normalization_32/beta", "shape": [128], "dtype": "float32"}, {"name": "batch_normalization_32/moving_mean", "shape": [128], "dtype": "float32"}, {"name": "batch_normalization_32/moving_variance", "shape": [128], "dtype": "float32"}]}, {"paths": ["group27-shard1of1"], "weights": [{"name": "batch_normalization_33/gamma", "shape": [128], "dtype": "float32"}, {"name": "batch_normalization_33/beta", "shape": [128], "dtype": "float32"}, {"name": "batch_normalization_33/moving_mean", "shape": [128], "dtype": "float32"}, {"name": "batch_normalization_33/moving_variance", "shape": [128], "dtype": "float32"}]}, {"paths": ["group28-shard1of1"], "weights": [{"name": "batch_normalization_34/gamma", "shape": [128], "dtype": "float32"}, {"name": "batch_normalization_34/beta", "shape": [128], "dtype": "float32"}, {"name": "batch_normalization_34/moving_mean", "shape": [128], "dtype": "float32"}, {"name": "batch_normalization_34/moving_variance", "shape": [128], "dtype": "float32"}]}, {"paths": ["group29-shard1of1"], "weights": [{"name": "batch_normalization_35/gamma", "shape": [128], "dtype": "float32"}, {"name": "batch_normalization_35/beta", "shape": [128], "dtype": "float32"}, {"name": "batch_normalization_35/moving_mean", "shape": [128], "dtype": "float32"}, {"name": "batch_normalization_35/moving_variance", "shape": [128], "dtype": "float32"}]}, {"paths": ["group30-shard1of1"], "weights": [{"name": "batch_normalization_36/gamma", "shape": [128], "dtype": "float32"}, {"name": "batch_normalization_36/beta", "shape": [128], "dtype": "float32"}, {"name": "batch_normalization_36/moving_mean", "shape": [128], "dtype": "float32"}, {"name": "batch_normalization_36/moving_variance", "shape": [128], "dtype": "float32"}]}, {"paths": ["group31-shard1of1"], "weights": [{"name": "batch_normalization_37/gamma", "shape": [128], "dtype": "float32"}, {"name": "batch_normalization_37/beta", "shape": [128], "dtype": "float32"}, {"name": "batch_normalization_37/moving_mean", "shape": [128], "dtype": "float32"}, {"name": "batch_normalization_37/moving_variance", "shape": [128], "dtype": "float32"}]}, {"paths": ["group32-shard1of1"], "weights": [{"name": "batch_normalization_38/gamma", "shape": [128], "dtype": "float32"}, {"name": "batch_normalization_38/beta", "shape": [128], "dtype": "float32"}, {"name": "batch_normalization_38/moving_mean", "shape": [128], "dtype": "float32"}, {"name": "batch_normalization_38/moving_variance", "shape": [128], "dtype": "float32"}]}, {"paths": ["group33-shard1of1"], "weights": [{"name": "batch_normalization_39/gamma", "shape": [128], "dtype": "float32"}, {"name": "batch_normalization_39/beta", "shape": [128], "dtype": "float32"}, {"name": "batch_normalization_39/moving_mean", "shape": [128], "dtype": "float32"}, {"name": "batch_normalization_39/moving_variance", "shape": [128], "dtype": "float32"}]}, {"paths": ["group34-shard1of1"], "weights": [{"name": "batch_normalization_4/gamma", "shape": [128], "dtype": "float32"}, {"name": "batch_normalization_4/beta", "shape": [128], "dtype": "float32"}, {"name": "batch_normalization_4/moving_mean", "shape": [128], "dtype": "float32"}, {"name": "batch_normalization_4/moving_variance", "shape": [128], "dtype": "float32"}]}, {"paths": ["group35-shard1of1"], "weights": [{"name": "batch_normalization_40/gamma", "shape": [128], "dtype": "float32"}, {"name": "batch_normalization_40/beta", "shape": [128], "dtype": "float32"}, {"name": "batch_normalization_40/moving_mean", "shape": [128], "dtype": "float32"}, {"name": "batch_normalization_40/moving_variance", "shape": [128], "dtype": "float32"}]}, {"paths": ["group36-shard1of1"], "weights": [{"name": "batch_normalization_41/gamma", "shape": [128], "dtype": "float32"}, {"name": "batch_normalization_41/beta", "shape": [128], "dtype": "float32"}, {"name": "batch_normalization_41/moving_mean", "shape": [128], "dtype": "float32"}, {"name": "batch_normalization_41/moving_variance", "shape": [128], "dtype": "float32"}]}, {"paths": ["group37-shard1of1"], "weights": [{"name": "batch_normalization_42/gamma", "shape": [32], "dtype": "float32"}, {"name": "batch_normalization_42/beta", "shape": [32], "dtype": "float32"}, {"name": "batch_normalization_42/moving_mean", "shape": [32], "dtype": "float32"}, {"name": "batch_normalization_42/moving_variance", "shape": [32], "dtype": "float32"}]}, {"paths": ["group38-shard1of1"], "weights": [{"name": "batch_normalization_43/gamma", "shape": [32], "dtype": "float32"}, {"name": "batch_normalization_43/beta", "shape": [32], "dtype": "float32"}, {"name": "batch_normalization_43/moving_mean", "shape": [32], "dtype": "float32"}, {"name": "batch_normalization_43/moving_variance", "shape": [32], "dtype": "float32"}]}, {"paths": ["group39-shard1of1"], "weights": [{"name": "batch_normalization_44/gamma", "shape": [256], "dtype": "float32"}, {"name": "batch_normalization_44/beta", "shape": [256], "dtype": "float32"}, {"name": "batch_normalization_44/moving_mean", "shape": [256], "dtype": "float32"}, {"name": "batch_normalization_44/moving_variance", "shape": [256], "dtype": "float32"}]}, {"paths": ["group40-shard1of1"], "weights": [{"name": "batch_normalization_5/gamma", "shape": [128], "dtype": "float32"}, {"name": "batch_normalization_5/beta", "shape": [128], "dtype": "float32"}, {"name": "batch_normalization_5/moving_mean", "shape": [128], "dtype": "float32"}, {"name": "batch_normalization_5/moving_variance", "shape": [128], "dtype": "float32"}]}, {"paths": ["group41-shard1of1"], "weights": [{"name": "batch_normalization_6/gamma", "shape": [128], "dtype": "float32"}, {"name": "batch_normalization_6/beta", "shape": [128], "dtype": "float32"}, {"name": "batch_normalization_6/moving_mean", "shape": [128], "dtype": "float32"}, {"name": "batch_normalization_6/moving_variance", "shape": [128], "dtype": "float32"}]}, {"paths": ["group42-shard1of1"], "weights": [{"name": "batch_normalization_7/gamma", "shape": [128], "dtype": "float32"}, {"name": "batch_normalization_7/beta", "shape": [128], "dtype": "float32"}, {"name": "batch_normalization_7/moving_mean", "shape": [128], "dtype": "float32"}, {"name": "batch_normalization_7/moving_variance", "shape": [128], "dtype": "float32"}]}, {"paths": ["group43-shard1of1"], "weights": [{"name": "batch_normalization_8/gamma", "shape": [128], "dtype": "float32"}, {"name": "batch_normalization_8/beta", "shape": [128], "dtype": "float32"}, {"name": "batch_normalization_8/moving_mean", "shape": [128], "dtype": "float32"}, {"name": "batch_normalization_8/moving_variance", "shape": [128], "dtype": "float32"}]}, {"paths": ["group44-shard1of1"], "weights": [{"name": "batch_normalization_9/gamma", "shape": [128], "dtype": "float32"}, {"name": "batch_normalization_9/beta", "shape": [128], "dtype": "float32"}, {"name": "batch_normalization_9/moving_mean", "shape": [128], "dtype": "float32"}, {"name": "batch_normalization_9/moving_variance", "shape": [128], "dtype": "float32"}]}, {"paths": ["group45-shard1of1"], "weights": [{"name": "conv2d_1/kernel", "shape": [3, 3, 2, 128], "dtype": "float32"}, {"name": "conv2d_1/bias", "shape": [128], "dtype": "float32"}]}, {"paths": ["group46-shard1of1"], "weights": [{"name": "conv2d_10/kernel", "shape": [3, 3, 128, 128], "dtype": "float32"}, {"name": "conv2d_10/bias", "shape": [128], "dtype": "float32"}]}, {"paths": ["group47-shard1of1"], "weights": [{"name": "conv2d_11/kernel", "shape": [3, 3, 128, 128], "dtype": "float32"}, {"name": "conv2d_11/bias", "shape": [128], "dtype": "float32"}]}, {"paths": ["group48-shard1of1"], "weights": [{"name": "conv2d_12/kernel", "shape": [3, 3, 128, 128], "dtype": "float32"}, {"name": "conv2d_12/bias", "shape": [128], "dtype": "float32"}]}, {"paths": ["group49-shard1of1"], "weights": [{"name": "conv2d_13/kernel", "shape": [3, 3, 128, 128], "dtype": "float32"}, {"name": "conv2d_13/bias", "shape": [128], "dtype": "float32"}]}, {"paths": ["group50-shard1of1"], "weights": [{"name": "conv2d_14/kernel", "shape": [3, 3, 128, 128], "dtype": "float32"}, {"name": "conv2d_14/bias", "shape": [128], "dtype": "float32"}]}, {"paths": ["group51-shard1of1"], "weights": [{"name": "conv2d_15/kernel", "shape": [3, 3, 128, 128], "dtype": "float32"}, {"name": "conv2d_15/bias", "shape": [128], "dtype": "float32"}]}, {"paths": ["group52-shard1of1"], "weights": [{"name": "conv2d_16/kernel", "shape": [3, 3, 128, 128], "dtype": "float32"}, {"name": "conv2d_16/bias", "shape": [128], "dtype": "float32"}]}, {"paths": ["group53-shard1of1"], "weights": [{"name": "conv2d_17/kernel", "shape": [3, 3, 128, 128], "dtype": "float32"}, {"name": "conv2d_17/bias", "shape": [128], "dtype": "float32"}]}, {"paths": ["group54-shard1of1"], "weights": [{"name": "conv2d_18/kernel", "shape": [3, 3, 128, 128], "dtype": "float32"}, {"name": "conv2d_18/bias", "shape": [128], "dtype": "float32"}]}, {"paths": ["group55-shard1of1"], "weights": [{"name": "conv2d_19/kernel", "shape": [3, 3, 128, 128], "dtype": "float32"}, {"name": "conv2d_19/bias", "shape": [128], "dtype": "float32"}]}, {"paths": ["group56-shard1of1"], "weights": [{"name": "conv2d_2/kernel", "shape": [3, 3, 128, 128], "dtype": "float32"}, {"name": "conv2d_2/bias", "shape": [128], "dtype": "float32"}]}, {"paths": ["group57-shard1of1"], "weights": [{"name": "conv2d_20/kernel", "shape": [3, 3, 128, 128], "dtype": "float32"}, {"name": "conv2d_20/bias", "shape": [128], "dtype": "float32"}]}, {"paths": ["group58-shard1of1"], "weights": [{"name": "conv2d_21/kernel", "shape": [3, 3, 128, 128], "dtype": "float32"}, {"name": "conv2d_21/bias", "shape": [128], "dtype": "float32"}]}, {"paths": ["group59-shard1of1"], "weights": [{"name": "conv2d_22/kernel", "shape": [3, 3, 128, 128], "dtype": "float32"}, {"name": "conv2d_22/bias", "shape": [128], "dtype": "float32"}]}, {"paths": ["group60-shard1of1"], "weights": [{"name": "conv2d_23/kernel", "shape": [3, 3, 128, 128], "dtype": "float32"}, {"name": "conv2d_23/bias", "shape": [128], "dtype": "float32"}]}, {"paths": ["group61-shard1of1"], "weights": [{"name": "conv2d_24/kernel", "shape": [3, 3, 128, 128], "dtype": "float32"}, {"name": "conv2d_24/bias", "shape": [128], "dtype": "float32"}]}, {"paths": ["group62-shard1of1"], "weights": [{"name": "conv2d_25/kernel", "shape": [3, 3, 128, 128], "dtype": "float32"}, {"name": "conv2d_25/bias", "shape": [128], "dtype": "float32"}]}, {"paths": ["group63-shard1of1"], "weights": [{"name": "conv2d_26/kernel", "shape": [3, 3, 128, 128], "dtype": "float32"}, {"name": "conv2d_26/bias", "shape": [128], "dtype": "float32"}]}, {"paths": ["group64-shard1of1"], "weights": [{"name": "conv2d_27/kernel", "shape": [3, 3, 128, 128], "dtype": "float32"}, {"name": "conv2d_27/bias", "shape": [128], "dtype": "float32"}]}, {"paths": ["group65-shard1of1"], "weights": [{"name": "conv2d_28/kernel", "shape": [3, 3, 128, 128], "dtype": "float32"}, {"name": "conv2d_28/bias", "shape": [128], "dtype": "float32"}]}, {"paths": ["group66-shard1of1"], "weights": [{"name": "conv2d_29/kernel", "shape": [3, 3, 128, 128], "dtype": "float32"}, {"name": "conv2d_29/bias", "shape": [128], "dtype": "float32"}]}, {"paths": ["group67-shard1of1"], "weights": [{"name": "conv2d_3/kernel", "shape": [3, 3, 128, 128], "dtype": "float32"}, {"name": "conv2d_3/bias", "shape": [128], "dtype": "float32"}]}, {"paths": ["group68-shard1of1"], "weights": [{"name": "conv2d_30/kernel", "shape": [3, 3, 128, 128], "dtype": "float32"}, {"name": "conv2d_30/bias", "shape": [128], "dtype": "float32"}]}, {"paths": ["group69-shard1of1"], "weights": [{"name": "conv2d_31/kernel", "shape": [3, 3, 128, 128], "dtype": "float32"}, {"name": "conv2d_31/bias", "shape": [128], "dtype": "float32"}]}, {"paths": ["group70-shard1of1"], "weights": [{"name": "conv2d_32/kernel", "shape": [3, 3, 128, 128], "dtype": "float32"}, {"name": "conv2d_32/bias", "shape": [128], "dtype": "float32"}]}, {"paths": ["group71-shard1of1"], "weights": [{"name": "conv2d_33/kernel", "shape": [3, 3, 128, 128], "dtype": "float32"}, {"name": "conv2d_33/bias", "shape": [128], "dtype": "float32"}]}, {"paths": ["group72-shard1of1"], "weights": [{"name": "conv2d_34/kernel", "shape": [3, 3, 128, 128], "dtype": "float32"}, {"name": "conv2d_34/bias", "shape": [128], "dtype": "float32"}]}, {"paths": ["group73-shard1of1"], "weights": [{"name": "conv2d_35/kernel", "shape": [3, 3, 128, 128], "dtype": "float32"}, {"name": "conv2d_35/bias", "shape": [128], "dtype": "float32"}]}, {"paths": ["group74-shard1of1"], "weights": [{"name": "conv2d_36/kernel", "shape": [3, 3, 128, 128], "dtype": "float32"}, {"name": "conv2d_36/bias", "shape": [128], "dtype": "float32"}]}, {"paths": ["group75-shard1of1"], "weights": [{"name": "conv2d_37/kernel", "shape": [3, 3, 128, 128], "dtype": "float32"}, {"name": "conv2d_37/bias", "shape": [128], "dtype": "float32"}]}, {"paths": ["group76-shard1of1"], "weights": [{"name": "conv2d_38/kernel", "shape": [3, 3, 128, 128], "dtype": "float32"}, {"name": "conv2d_38/bias", "shape": [128], "dtype": "float32"}]}, {"paths": ["group77-shard1of1"], "weights": [{"name": "conv2d_39/kernel", "shape": [3, 3, 128, 128], "dtype": "float32"}, {"name": "conv2d_39/bias", "shape": [128], "dtype": "float32"}]}, {"paths": ["group78-shard1of1"], "weights": [{"name": "conv2d_4/kernel", "shape": [3, 3, 128, 128], "dtype": "float32"}, {"name": "conv2d_4/bias", "shape": [128], "dtype": "float32"}]}, {"paths": ["group79-shard1of1"], "weights": [{"name": "conv2d_40/kernel", "shape": [3, 3, 128, 128], "dtype": "float32"}, {"name": "conv2d_40/bias", "shape": [128], "dtype": "float32"}]}, {"paths": ["group80-shard1of1"], "weights": [{"name": "conv2d_41/kernel", "shape": [3, 3, 128, 128], "dtype": "float32"}, {"name": "conv2d_41/bias", "shape": [128], "dtype": "float32"}]}, {"paths": ["group81-shard1of1"], "weights": [{"name": "conv2d_42/kernel", "shape": [1, 1, 128, 32], "dtype": "float32"}, {"name": "conv2d_42/bias", "shape": [32], "dtype": "float32"}]}, {"paths": ["group82-shard1of1"], "weights": [{"name": "conv2d_43/kernel", "shape": [1, 1, 128, 32], "dtype": "float32"}, {"name": "conv2d_43/bias", "shape": [32], "dtype": "float32"}]}, {"paths": ["group83-shard1of1"], "weights": [{"name": "conv2d_5/kernel", "shape": [3, 3, 128, 128], "dtype": "float32"}, {"name": "conv2d_5/bias", "shape": [128], "dtype": "float32"}]}, {"paths": ["group84-shard1of1"], "weights": [{"name": "conv2d_6/kernel", "shape": [3, 3, 128, 128], "dtype": "float32"}, {"name": "conv2d_6/bias", "shape": [128], "dtype": "float32"}]}, {"paths": ["group85-shard1of1"], "weights": [{"name": "conv2d_7/kernel", "shape": [3, 3, 128, 128], "dtype": "float32"}, {"name": "conv2d_7/bias", "shape": [128], "dtype": "float32"}]}, {"paths": ["group86-shard1of1"], "weights": [{"name": "conv2d_8/kernel", "shape": [3, 3, 128, 128], "dtype": "float32"}, {"name": "conv2d_8/bias", "shape": [128], "dtype": "float32"}]}, {"paths": ["group87-shard1of1"], "weights": [{"name": "conv2d_9/kernel", "shape": [3, 3, 128, 128], "dtype": "float32"}, {"name": "conv2d_9/bias", "shape": [128], "dtype": "float32"}]}, {"paths": ["group88-shard1of1"], "weights": [{"name": "dense_1/kernel", "shape": [1344, 256], "dtype": "float32"}, {"name": "dense_1/bias", "shape": [256], "dtype": "float32"}]}, {"paths": ["group89-shard1of1"], "weights": [{"name": "policy_out/kernel", "shape": [1344, 7], "dtype": "float32"}, {"name": "policy_out/bias", "shape": [7], "dtype": "float32"}]}, {"paths": ["group90-shard1of1"], "weights": [{"name": "value_out/kernel", "shape": [256, 1], "dtype": "float32"}, {"name": "value_out/bias", "shape": [1], "dtype": "float32"}]}]}